checkpoint_critic_solved.pth (torch, 552867 bytes, 9 tensors)

fcs1.weight f4 [400, 33]
00000000: 4431 c7bd 2dca 0fbe 0072 22be bccb 883e
00000010: 7f93 a33c 2f25 b3bc 8972 32be fb17 693c
00000020: 5e73 903d e2ad 99bd 3a4c 2cbd de7a a1bd
00000030: e712 873b 632d b2bc 3c65 cabc e50a 163e
00000040: 366d b4bc 1680 bb3d 2481 6b3e 3494 cfbc
00000050: 8fa3 ba3c 98ea c33c 95b7 523d 976c 0b3d
00000060: e642 84bd caa7 a43d 7d7f 2fbd 8b37 b23a
00000070: f97a 1d3c 2740 fcbb f2f3 bfba b350 73bc
00000080: cc03 22bf b09f 303e 73d1 043e 92ab dbbd
00000090: 47b3 62bd da8f a4be a093 0d3f 4af8 1cbe
000000a0: 6af6 8fbd 061a 863d ef8a 21be 31f1 5e3e
000000b0: a40c 093d b029 c7bd dd9a dbbc e73d 56bd
000000c0: a3b9 a83d 03ab 843d 3f0a cabe ca61 45be
000000d0: fc49 173e 574f 463c 0df2 02bd c6f9 7f3d
000000e0: 72e1 41bc a42d 9bbd 5da6 2dbe d3ca 25bd
000000f0: 9406 813c 0339 81bd 8744 75bc 9ca9 c53c
00000100: 3d2b dabc 9016 72be 1a3b 42be 8159 90bd
00000110: 09ec 15bd 303a c7be e70f 8f3d 991e e6bd
00000120: 8c8f 873e 2a16 1839 2a41 4a3e 9ea4 8bbe
00000130: 5fa8 443d 1495 aa3c d023 1b3b d790 1f3e
00000140: 2193 2c3e 797f 213d 6024 8abd 437d 513d
00000150: e40e 793e c9c7 f33c 55f3 f93b b2b5 e33c
00000160: cc35 453c f2df 9c3d 39ab 973d 8ca3 83bd
00000170: 8e6a 38bd 0f6f f83c 408b 87bd d70a a93c
00000180: 9c06 a4bc 5ab8 aebb 8bdf 9a3e ddf9 e0bb
00000190: 3f97 b0bc 0004 d03d 7240 77bd 85e2 4b3e
000001a0: f774 a63e 1be0 523d c49a 273e 218f babd
000001b0: 32f2 713d a81a 973d 28f3 96bd 137f 1cbc
000001c0: c593 263d 34b0 78bd 3310 12bd b3d9 773c
000001d0: 89c3 a63c f71e 0bbe bb33 ef3d 3c1a 9dbc
000001e0: 8b9b 41bd f0ce 04bb c919 9f3d 6864 e0bc
000001f0: 3789 96bd 156a ffbd af9a 483c 981d d3bd
00000200: 1bb6 153d 44d6 ffbc 2d18 3fbc 16ff 323f
00000210: bdc5 00be 51d8 3cbb aad3 3bbe f55c 64be
00000220: 8859 003e 2644 a1bc edf7 a03e 2814 9fbd
00000230: 20b6 9e3e b736 763e d68d 603d 0dbe f53c
00000240: 9212 95bd 9e27 18be cdd9 353c 5b28 96bd
00000250: ef59 683c 1860 08be 8961 68bd a745 d6be
00000260: 85c0 8abc 94f3 b23d 4945 e0bc 9b4c 073d
00000270: 2e33 e73c 9f08 d13c 232b 063e 561c e53c
00000280: a7be 0b3d cdf2 3c3b 511c 1abd c081 aa3c
00000290: f9f3 593e c6fe 4cbe 59ec 12be ac94 323e
000002a0: 32cc 4b3b fa55 823d 251b 3f3c 8029 f03d
000002b0: e9e6 e43b 75b2 26be e50d e6bd 4c68 f9bd
000002c0: fd53 02be 6b22 0cbd b8ec be3d 0574 943d
000002d0: aad6 2b3d a927 1c3e 67ef 3a3e c8d5 13be
000002e0: a086 41bd 2122 993a 319f ac3d 77f5 503d
000002f0: d602 b73d ffc3 79bc d6ad 1ebd 214b 8dbd
00000300: e8bc bb3c bbd1 543e edb4 7fbc 74e4 413c
00000310: 3dbe b93c dda7 fe3d f689 9c3b 6c7c da3b
00000320: 5658 8fbe 8bb0 90bd 1a24 2bbd f3dd cb3c
00000330: 765b 3cbe 4c43 d83d 661e 14be 0072 70bd
00000340: 151e 603d 216e 613d eb9b 8fbd 7e2a 243d
00000350: 8ad7 263e 17bc 713e e72c 893d 81cc b53d
00000360: 1256 24be f183 943d cab0 7e3c 2f59 163e
00000370: d4fb f3bb 9159 8a3c c4fd c3bd 4d08 273d
00000380: 11d5 48bd bcd5 0d3d 5952 7ebb 634d fb3c
00000390: 16ac 6abc 808a 01bc 48b6 6cbd 5bc2 febb
000003a0: 8628 ecbc 9bd4 a73b 60fc a2bd 3ddf 9f3c
000003b0: 3ada c9bd d069 03bc fccb 0cbd 0c0f 69b9
000003c0: 86a6 47bc d692 e9bb 858d 233b e7f1 1abc
000003d0: 252a dcbc 2835 663b e8fb adbc d344 42bd
000003e0: b2c3 46ba 77a7 20bd c401 983d da27 b93a
000003f0: e66e 133c 370d 5cbb 5b20 c0bb 1906 d0bb
-0.097261935 -0.14041968 -0.158638 0.26717937 0.019967793 -0.021868316 -0.17426504 0.014226909
0.070532545 -0.07503869 -0.042064883 -0.07884763 0.0041221264 -0.021750158 -0.024706475 0.14652593
-0.022024732 0.0915529 0.22998482 -0.025339223 0.022783069 0.023915574 0.05144461 0.034039106
-0.06458072 0.08039816 -0.04284619 0.0013596875 0.0096118385 -0.0076980772 -0.0014644845 -0.014850783
-0.63287044 0.17248416 0.12970524 -0.10726084 -0.055346753 -0.32141 0.5530338 -0.1532909
-0.07029422 0.06547932 -0.15775655 0.21771695 0.03345932 -0.09724748 -0.026807243 -0.05230513
0.082385324 0.064779304 -0.39460942 -0.19275585 0.14774317 0.012103877 -0.03196912 0.062494062
-0.0118335355 -0.07577065 -0.16957994 -0.04047663 0.015750207 -0.06309702 -0.0149699515 0.024128728
-0.026631946 -0.2364142 -0.18967858 -0.070483215 -0.036602054 -0.3891158 0.06985455 -0.11236305
0.26476705 0.00014504106 0.1975142 -0.2727403 0.048012134 0.02082304 0.002367247 0.15582596
0.16853 0.039428208 -0.06745219 0.05114485 0.24322087 0.02975835 0.0076278844 0.0277966
0.012036752 0.07659902 0.07405705 -0.064276785 -0.045023493 0.030326394 -0.06618357 0.020635052
-0.020022683 -0.005332035 0.30248675 -0.0068657235 -0.021556495 0.10157013 -0.060364194 0.19910629
0.32511112 0.051483255 0.16367632 -0.09109331 0.059068866 0.07378131 -0.07370597 -0.009551781
0.040668268 -0.060714915 -0.03565998 0.015127587 0.02035691 -0.13586031 0.11679789 -0.019177549
-0.047267478 -0.0020264946 0.0776859 -0.027391627 -0.073503904 -0.124714054 0.012243911 -0.10308379
0.036550622 -0.0312301 -0.011663479 0.6992048 -0.12575431 -0.0028815458 -0.18342462 -0.22301085
0.12534153 -0.019685816 0.31439152 -0.077675164 0.30998325 0.2404431 0.054822765 0.02999785
-0.07278933 -0.14858863 0.011099291 -0.07331916 0.014181598 -0.13317907 -0.05673364 -0.41850016
-0.016937504 0.08737865 -0.027376788 0.03303204 0.028222647 0.025516806 0.13102393 0.027967613
0.034117367 0.0028831244 -0.03762466 0.020813823 0.21284474 -0.20019063 -0.14347972 0.17439526
0.0031097052 0.06364055 0.011664187 0.117266655 0.0069855344 -0.16279013 -0.11233119 -0.12178096
-0.12727351 -0.03421251 0.09322494 0.072486915 0.041952766 0.15249504 0.18255387 -0.1443702
-0.04724753 0.0011683145 0.08428801 0.051015344 0.08936088 -0.015244483 -0.03874 -0.06899095
0.022917226 0.20783131 -0.015607101 0.011834253 0.02267372 0.12434361 0.0047771884 0.0066676643
-0.27997082 -0.07064923 -0.041782476 0.024886107 -0.18394265 0.10559711 -0.14464721 -0.05870247
0.05471619 0.055036668 -0.07012161 0.040079586 0.16293159 0.23606907 0.066980176 0.08876897
-0.16048458 0.07251728 0.0155450795 0.14682458 -0.0074457917 0.016888412 -0.09569886 0.0407794
-0.04903132 0.03462766 -0.0038806407 0.03067655 -0.014323255 -0.007906556 -0.057791024 -0.007774634
-0.028827917 0.00512178 -0.07958293 0.019515628 -0.098560765 -0.008020833 -0.034374222 -0.00022226217
-0.012185698 -0.0071281 0.0024956178 -0.009457088 -0.026875565 0.0035126898 -0.021238282 -0.047428917
-0.00075822615 -0.039222207 0.07422212 0.0014126257 0.008998608 -0.0033577213 -0.005863232 -0.006348383

fcs1.bias f4 [400]
00000000: 5429 ca3c 3be4 293e 131a 7d3d 92b5 c93d
00000010: 2592 903d a665 60bd 9a20 293d c522 f4bd
00000020: 9318 253e b808 2c3c c53e 0a3e 6c85 fabd
00000030: c7c8 23be 5ee0 ac3c aa08 b4bc 21fe 8fbd
00000040: b5b0 b93d 0803 e8bd 78c0 1b3e 3801 2ebe
00000050: 263b 143d 3c7b cfbd 239f 193d 44da 2f3e
00000060: 9436 a8bc e6d8 283d 566c 8cbd ac17 b7bd
00000070: ff47 18be 9198 cc3d b2a4 b7ba 0c34 783d
00000080: 5462 09be 86e4 13be fbc7 21be dfd6 c8bd
00000090: a6c5 babc 7998 d6bc 3915 9d3d a406 abbd
000000a0: f516 2e3e 01a6 a1bd 19a0 27be 64ae 063e
000000b0: 0b74 e6bd a90c 883c d7bb 66bc a56e 13bd
000000c0: c5f4 e638 9736 2fbe 6942 203e 76c2 e7bd
000000d0: 83b4 d93d 0a54 d3bd 008a 2ebd 1a66 82bb
000000e0: 81b8 8bbd 2ba6 9abd 7972 15be b308 f3bd
000000f0: 8004 04bc 16de 4fbd 1436 c8bc 8f09 373d
00000100: 8677 b6bc d3fc 28be 9d93 83bd 4095 5a3d
00000110: b103 803d 04f4 ab3d f991 1e3c 6a30 f53d
00000120: 5658 f4bd a17e 15be 26fd 3abd eeae 133b
00000130: 2f43 013e d480 cdbd 5de6 f8bd a98c 97bb
00000140: a795 343d 8293 22be 4cc5 8dbd 7c9b 0abe
00000150: 87fa 2c3d b0c0 873c 7203 1ebe ea93 edbd
00000160: 253f 013c 2108 3dbd 3b86 09be 7045 57bd
00000170: 97c0 23be 03fe 9cbc fd44 a7bc 51db 223c
00000180: c4a3 803c 2c56 f0bc 7c82 0e3e 37e3 7dbd
00000190: 89fb a03d d275 873d 377a acbc 1651 02be
000001a0: af0a 16be ce62 453d 1a23 603d eca2 d83d
000001b0: 137b 9dbd c0fa 0f3e c509 333e 3d47 dfbc
000001c0: afe9 8abd c289 5fbd 610f 1bbe 3d89 cd3d
000001d0: 7772 9b3c 312b a43d ea9d e53d 214c 97bd
000001e0: df87 cd3a e202 103e 1d61 09be f849 1d3e
000001f0: 13de b83d e7a3 5fbd 96d0 11be ea5f bd3d
00000200: 3ef2 aa3d 7ef9 a0bd dddf a93d 890a 553d
00000210: 6198 2f3e e615 b63d 7131 dc3c b2a0 30be
00000220: cd20 113e 95ee 183e 17aa 42bd e3c1 5cbc
00000230: 2214 dfbb 5774 2fbc f525 c23d ec53 c33c
00000240: 0a3c 1abe 50cd 643d 0252 d6bd cf6e 4b3d
00000250: 6763 9c3d 5419 aabd fc62 f13d 01c2 913b
00000260: d0e7 b2bd 0d75 173e 9c11 e43d 0d7c 023e
00000270: 09d7 f5bd 82bb 07be 2389 1cbe ce42 e73d
00000280: 9d37 ce3d 7665 d9bd a786 8b3d 7e54 0f3d
00000290: 2838 98bd 10b9 bd3b a696 d6bd 5538 4fbd
000002a0: 20fb 8c3d 314d cb3c 950c 05be bdb3 343d
000002b0: ee31 0ebd ef2f 02be 1276 24be 3a96 f53b
000002c0: 66e8 02be 52b4 d9bd 07a3 2c3d 2b58 2b3c
000002d0: e4a1 a1bd 2356 db3c 0ba1 b33d 7cc9 88bd
000002e0: 3256 7dbd c21f f23c f12b 303d 664a 783d
000002f0: f872 ef3d 622a 38bc 510d 6c3d 0e41 cdbd
00000300: 8731 b6bc 0886 043e abbb 2cbe 4350 e9bd
00000310: be32 1abe e721 153e d160 a0bc b575 233e
00000320: c8a5 bfbd 77fd 4cbd 4898 e53d 9f13 32be
00000330: 219b 2bbe 2cfe efbd 5e66 473b 311c 24be
00000340: b489 073d 5f9d 163e 0637 0fbd d40c fcbc
00000350: 9dd8 1cbe edcc 16bd 07eb 6b3c 594e 123d
00000360: 2344 61bd 3dd2 d9bd 17af b9bd 7b3f f63d
00000370: 825a c1bd fa34 5a3c cd57 f9bc 4657 8fbd
00000380: 66df f1bb e3bd 063e 5e67 073e cc90 14bd
00000390: 70fe 0cbd 7b0c c6bd b1eb a4bd debe f0bc
000003a0: 1e46 043e 3f16 013d 7b6e 18be 3d95 38bd
000003b0: fbea 19be b7b0 243e eb06 8a3c d8cd 33bd
000003c0: 74ef 8e3d c154 26be cf20 6abd c163 863c
000003d0: 8078 003e 684b 123e 51ee b4bb 112f 32be
000003e0: 4fdb 013d d1bf c8bd 4552 203e a162 3cbd
000003f0: 8846 40bd 7a53 cfbc 1b45 253e 4f41 9d3d
0.02467791 0.1659097 0.061792444 0.09849085 0.07059125 -0.05478444 0.041290857 -0.11920694
0.16122656 0.010500126 0.13500507 -0.122324795 -0.15994559 0.02110308 -0.021976788 -0.07030893
0.09066907 -0.11328703 0.1521014 -0.16992652 0.03618922 -0.10130927 0.03750528 0.17173105
-0.020533837 0.041222475 -0.06856601 -0.08940062 -0.14871214 0.09990037 -0.0014010875 0.06059651
-0.13416415 -0.14442644 -0.15798943 -0.098066084 -0.022799324 -0.026195752 0.076700635 -0.08350876
0.17000945 -0.07892991 -0.16369666 0.13152462 -0.11252602 0.0166076 -0.01408287 -0.03599419
0.000110128465 -0.17110668 0.15650333 -0.11316387 0.10630133 -0.103187636 -0.042612076 -0.0039794566
-0.06822301 -0.07551225 -0.14594449 -0.118668936 -0.0080577135 -0.050748907 -0.024439849 0.04468685
-0.02227379 -0.16502695 -0.064246394 0.053364992 0.06250704 0.08396152 0.009678357 0.11972125
-0.11930911 -0.14599086 -0.045651577 0.0022534686 0.12623285 -0.10034338 -0.12153313 -0.0046249223
0.044088032 -0.15876582 -0.06922397 -0.13535875 0.04223111 0.016571373 -0.15431002 -0.11600478
0.00788859 -0.04615033 -0.13430111 -0.052556455 -0.15991436 -0.019164091 -0.020418638 0.009939984
0.01570309 -0.029337965 0.13916963 -0.061984267 0.078604765 0.06614269 -0.02105437 -0.12726244
-0.14652513 0.04818993 0.054720975 0.1057795 -0.0768949 0.14060497 0.17484196 -0.027255649
-0.06782853 -0.054574735 -0.15142585 0.10035942 0.01897548 0.080160506 0.1121176 -0.07387567
0.0015680752 0.140636 -0.13415952 0.15360248 0.09026732 -0.05459967 -0.14239725 0.0924681
0.08346985 -0.07860087 0.08294652 0.052012 0.17147972 0.088908955 0.026879044 -0.172488
0.14172669 0.14934762 -0.04752549 -0.013473961 -0.00680782 -0.01070889 0.09479896 0.023843728
-0.15061966 0.055859864 -0.104648605 0.049666222 0.07636147 -0.08305612 0.11786458 0.004448176
-0.08735621 0.14790745 0.11136171 0.12742634 -0.12003905 -0.13255122 -0.15286689 0.11292039
0.10069201 -0.10615055 0.06812792 0.034992687 -0.07432586 0.0057898834 -0.10477953 -0.05059083
0.06883836 0.024817081 -0.12993081 0.044116724 -0.034715585 -0.12713598 -0.16060665 0.007494715
-0.12783965 -0.106300965 0.042147662 0.010458033 -0.07892206 0.026774472 0.08770951 -0.06679055
-0.06184978 0.029556159 0.043010656 0.060617827 0.116918504 -0.011240574 0.057629887 -0.10022174
-0.022240413 0.12941754 -0.16868465 -0.11392262 -0.15058419 0.14563714 -0.019577416 0.1596287
-0.09357792 -0.05004641 0.11210686 -0.17390297 -0.16758396 -0.11718401 0.0030426006 -0.16026379
0.03309031 0.1470847 -0.034964584 -0.030767836 -0.15317006 -0.036816526 0.014399297 0.03571925
-0.05499662 -0.10635803 -0.09066599 0.12023827 -0.09441091 0.013318295 -0.030437374 -0.06999068
-0.0073813675 0.13158374 0.13223025 -0.0362709 -0.034422338 -0.09670349 -0.08052767 -0.029387888
0.12917373 0.031515356 -0.14885895 -0.0450642 -0.15031044 0.16083036 0.016849002 -0.04389748
0.06979266 -0.16243269 -0.057160195 0.016404988 0.12545967 0.14286578 -0.0055215736 -0.17400767
0.03170329 -0.09802211 0.15656383 -0.045992497 -0.046942264 -0.02530836 0.16139643 0.07678472

bn1.weight f4 [400]
00000000: 3326 463f 8382 fc3e a70d 143f 4976 2e3f
00000010: d2d4 123f 7062 fa3e 7b9f e93e 2146 963f
00000020: 9714 623f fc9f 3c3f 7cbf 133f 88f4 0b3f
00000030: 5f2c 083f 0938 523f bf6a 613f 1dfc 193f
00000040: da00 583f 4245 093f d467 d33e 8901 253f
00000050: 018a 253f a968 753f 106e 193f 3ea6 173f
00000060: 7335 0a3f ce74 5a3f e86e cb3e 4ed7 143f
00000070: 6452 163f 94c8 863f 5162 0d3f 0ee3 673f
00000080: a2e4 413f 2f03 583f 790f c73e 589d 553f
00000090: b795 0b3f 2bac 073f eb3e 183f fb31 213f
000000a0: 1a60 333f 6e56 ab3e 3cd7 fb3e bba2 1d3f
000000b0: 5de4 3c3f 2acf 1b3f c7d0 6f3f 97ad 093f
000000c0: aa4b 573f 1d4b e63e f93b f63e 5a57 3a3f
000000d0: 89ef 003f 86ad 043f c7d2 2f3f 60b5 4e3f
000000e0: 71f2 263f 4957 673f af8c 2b3f a2a1 383f
000000f0: 5ad6 003f bd52 de3e 33dd 333f bb30 273f
00000100: 6ad8 173f 6b3b 1a3f 2d61 ef3e 0597 fc3e
00000110: 86ed 183f 4af4 113f d34c 1a3f 0fd5 243f
00000120: 6764 193f 3cd6 1b3f 5e9a 333f d7a3 3b3f
00000130: 7995 163f 4cba 303f 2d0d 1e3f e8a8 0f3f
00000140: 45a7 253f 31c3 173f 98c3 6f3f 824b 903f
00000150: c7c3 bb3f 3d4e 103f 51b8 463f 9f5f d63e
00000160: 3690 3f3f e131 353f f7b5 e03e 08db 153f
00000170: 6ceb 233f f69d 3d3f fa4b 223f 739c 9c3f
00000180: f9bc 493f b7a6 8d3f 5b79 183f 555f 3e3f
00000190: e9ab d93e a7d7 363f 4473 1a3f e467 c43e
000001a0: 4874 1d3f bdec 1d3f 8681 7c3f 724b ec3e
000001b0: 0820 fe3e 9653 2c3f 11f0 5e3f d528 1f3f
000001c0: d83e 1c3f 773c 383f c488 223f 3985 363f
000001d0: 5ea2 363f 53e7 363f 0467 553f 9d6f 093f
000001e0: 1969 143f 259e 313f 7355 163f c021 753f
000001f0: d136 063f ada1 583f 0661 e63e cdcd 0c3f
00000200: b87c 053f 0904 243f 27f1 303f 8997 453f
00000210: 647a 153f aa4a 0d3f 93e8 e33e f39b df3e
00000220: 9657 0c3f 8a83 f43e 3480 443f 65ce 0c3f
00000230: 0342 1a3f a506 383f 2100 103f 09d5 2d3f
00000240: 4fb2 5c3f ed1f 0f3f 9345 f13e 5a94 c63e
00000250: 1ae9 473f 3980 413f 3a6e c33e 12d2 2c3f
00000260: 99f4 273f 5504 e83e 0de3 123f 209b 093f
00000270: 9a0c 363f 39f7 1d3f 29d3 2a3f 94a5 4e3f
00000280: a637 263f 7cd6 183f e3dc 213f 5de3 003f
00000290: 5454 833f fd3c 303f da37 5a3f ff8d 2d3f
000002a0: 67cc 523f 6135 1b3f 098c 423f b840 123f
000002b0: 4ac1 243f 16b0 0f3f abd6 263f bccd 0f3f
000002c0: 6a74 3b3f f395 ea3e 0b9e 0c3f 74a2 f33e
000002d0: 1740 1c3f 2a03 093f 0abb 243f 20a4 253f
000002e0: e8dc 363f d7d5 753f d628 013f 2037 153f
000002f0: e72d 803f edd0 1f3f 016e f53e 0edb dd3e
00000300: 6f4d 283f d410 243f 3761 193f dda7 1a3f
00000310: 840a 123f 6aa2 3c3f 269d 083f 4e19 433f
00000320: 5283 243f c08a 8f3f b790 0d3f 08b3 6c3f
00000330: a76d a13f c988 443f e345 263f c1c0 2d3f
00000340: 21ff 833f 6fdf ef3e 3dfa 2e3f fcfb fa3e
00000350: 847d 0f3f 1e85 2b3f 3927 053f 325e 2e3f
00000360: bfda 243f d0e9 333f 3065 583f dd79 313f
00000370: 289a 083f a059 153f 158f 163f 4513 053f
00000380: 0548 353f 39c7 e63e b409 203f 02a5 123f
00000390: bdcc 893f 92d1 3f3f 28f2 343f c8c3 fa3e
000003a0: af49 233f 765d af3f 4a39 073f 2512 cf3e
000003b0: 1759 463f 73db 183f f930 5a3f efce f23e
000003c0: 183e 253f a56b 393f 9d0c 243f 1ab0 133f
000003d0: e6f2 153f 0e71 263f 9738 003f f2a9 4a3f
000003e0: 75f3 fc3e 6856 203f e245 063f 82c9 143f
000003f0: e180 243f 42ef 363f c60a 093f 013a 533f
0.7740204 0.49318323 0.5783333 0.6814924 0.5735599 0.48903227 0.45629486 1.1740152
0.8831267 0.73681617 0.57714057 0.5467 0.53192705 0.8211675 0.88053507 0.6015032
0.843763 0.53621304 0.41290152 0.6445547 0.646637 0.95862824 0.5993357 0.5923804
0.5398781 0.8533448 0.39733052 0.5814103 0.5871947 1.0529962 0.55228144 0.9058083
0.7573949 0.8437986 0.38878992 0.8344321 0.5452532 0.5299708 0.59471005 0.6296689
0.70068514 0.33464378 0.49187648 0.6157643 0.73785955 0.6086298 0.93677944 0.537805
0.8409983 0.44979182 0.4809263 0.7278954 0.503655 0.51827276 0.68680996 0.80745506
0.65213686 0.9036756 0.6701154 0.7212163 0.50327075 0.434225 0.702594 0.6530873
0.59314597 0.60246915 0.46753827 0.4933397 0.5973743 0.5701338 0.60273474 0.643876
0.59918827 0.6087377 0.7015742 0.73296875 0.5882183 0.69034266 0.61738855 0.56117105
0.6470836 0.59282213 0.9365783 1.1273043 1.4669122 0.5636938 0.77624995 0.41869828
0.74829423 0.70779234 0.43888828 0.5853734 0.640311 0.74069154 0.6339718 1.2235245
0.78803974 1.1066502 0.59560174 0.74364215 0.4251397 0.7142281 0.6033213 0.38360512
0.61505556 0.6168936 0.9863514 0.4615131 0.49633813 0.6731504 0.8708506 0.6217168
0.6103339 0.7196726 0.6348994 0.7129703 0.713415 0.7144672 0.83360314 0.53685933
0.57972866 0.69381934 0.58724135 0.95754623 0.52427393 0.846217 0.44995898 0.5500153
0.5214343 0.6406866 0.6911797 0.7718435 0.5838988 0.55192053 0.44513378 0.43673667
0.54821146 0.47756606 0.7675812 0.55002433 0.60256976 0.7188514 0.56250197 0.6790319
0.8620958 0.5590809 0.47123393 0.38785058 0.7809006 0.7558628 0.38170034 0.6750804
0.656076 0.45315805 0.573777 0.53752327 0.7111298 0.61705357 0.66728455 0.807214
0.6492866 0.5970228 0.6322767 0.5034693 1.026011 0.6884306 0.8524147 0.67794794
0.82343143 0.60628325 0.75994927 0.5713 0.64357436 0.5612806 0.6517131 0.561733
0.7322451 0.45817527 0.54928654 0.4758488 0.61035293 0.5352045 0.643479 0.6470356
0.71430826 0.9602942 0.50452936 0.5828724 1.0014008 0.6242817 0.4793549 0.43331188
0.65743154 0.6408818 0.59913963 0.6041239 0.57047296 0.73685324 0.5336479 0.76210487
0.6426288 1.1214218 0.5529894 0.9246068 1.2611588 0.7677122 0.6495039 0.67872244
1.0312234 0.46850154 0.68350583 0.49020374 0.56050897 0.66999996 0.52012974 0.6811248
0.6439628 0.70278645 0.845294 0.69326574 0.53360224 0.5833988 0.58812076 0.5198253
0.7081302 0.4507387 0.62514806 0.5728303 1.0765606 0.74929154 0.70682 0.48977494
0.6378431 1.3700397 0.5282179 0.4044353 0.7747969 0.5970985 0.85230976 0.47423503
0.6454787 0.7242988 0.64081746 0.57690585 0.5857376 0.6501626 0.5008635 0.79165566
0.49404493 0.62631845 0.5245038 0.58119977 0.64259154 0.7145883 0.53532064 0.8251038

bn1.bias f4 [400]
00000000: d8be 3cbf f4fa bebe 51fe 00bf 30e1 2abf
00000010: 5499 d9be 173e 80be 49f2 40bf ec18 e1bc
00000020: 8b22 25bf 6415 51bf 417d babe a957 f0be
00000030: 1277 ac3d 8505 dfbe cdc3 9abe c02a 00bf
00000040: 9a71 02bf e4ad 49bf 56a1 973e 1cb2 8cbe
00000050: a61c 13bf 771f d0be 0fcf 033e 4260 31bf
00000060: a860 3a3e e2fb 12bf c481 20be 5b1a 89be
00000070: ff91 69be f22a 54bf 1072 2b3e 871d f2be
00000080: afb0 10be 4547 23be 9ac4 3cbd 3e8e 7d3e
00000090: ae1c 663c 212f 1abf 2c4f cebe 3beb fcbe
000000a0: ea40 ef3e 0601 a03c adf7 e5bd b139 1bbf
000000b0: edfd d4be b530 09bf 116c 0abf 6ce2 30bf
000000c0: ad84 e1be d054 12bf b8e2 12bf 8cdf 16bf
000000d0: 8af6 13bf df34 873d 79fc 3cbf 36e2 07bf
000000e0: 97f1 72be c396 83be b86a d4be fcc9 f03e
000000f0: c7fd efbe 192e 00be 6dd0 1bbf ec98 50bf
00000100: 9a8d fdbe 71b4 34bf a560 49be 69a0 dfbd
00000110: 0697 debe 252b ddbe 6c47 04bf 3618 ddbe
00000120: d3c6 1fbf 0e48 32bf f817 e13e 12df c3be
00000130: 6cfc 21bf 9cb8 36bf 8ac1 173e 1de6 24bf
00000140: f10f 97be ab8f 203e 73d3 e5be 8db6 2cbf
00000150: be0e 39be c95e 7dbe d6eb b6be 6480 2dbf
00000160: 7552 cfbe 4274 2fbf 74f8 51bc 7a11 0ebf
00000170: b536 1dbf 6b43 ddbe b867 3abf 90da 273e
00000180: 1a21 b1be 5a25 e2be e681 15bf 794e 503e
00000190: 557e 73be 32c3 ac3e 4870 06bf fac8 57bd
000001a0: 9cbf b93d 5333 04bf abb9 c13e 5a96 5ebe
000001b0: 20f3 25be 69e3 67bf de17 c7be df43 ecbe
000001c0: 6f50 2abf 0444 c8be e78f eabe 8ac9 0ebf
000001d0: 0932 18bf 90d7 07bf 25c9 dfbe a5d8 25bf
000001e0: 444e 48bf 65fd afbe 4574 d33c 69e4 593d
000001f0: 0bff edbc 47c4 d3be 369b 29be 5fbc d43e
00000200: ff36 503e 70db adbe 2200 0abf d387 adbe
00000210: 30fb 39bf 9d08 c6be d002 8fbd d317 2d3f
00000220: e491 08bf c82f efbe 6d44 b9be 4a07 193d
00000230: 2449 e3be 7bed e0be 2cc2 03bf 3a61 edbe
00000240: 0421 0dbf 6235 bdbe f359 263f b882 0cbf
00000250: bc34 e43e 9e5c 33bf eb20 b9be b473 30bf
00000260: 59b5 19bf 041d febb 6fd1 fabe 3aac 8dbe
00000270: 9216 01bf 28a0 14bf 358d bfbe 6d69 2b3e
00000280: e2ed 26bf 0e4c 39bf a772 2cbf dd77 c0be
00000290: d00d f9be d6ce 4a3e 1d2d dbbe cfcc 3ebf
000002a0: 5f1d 84be 4ad3 98be fd39 0cbf 7294 10bf
000002b0: f5ce e0be 1973 56bf 99a9 40bf 260b 10bf
000002c0: 4675 8dbd 40c6 90be aee1 51be 98be ddbe
000002d0: 23cf dbbe bf3b a1be 285c 06bf 8d52 32be
000002e0: edfd d3be cb62 05bf 34d6 eebe 6894 0bbf
000002f0: 87e1 02bf f533 36bf a5d5 d4be 6496 91be
00000300: 4f12 0ebe 14a8 44bf 4e33 ccbe acb5 f13e
00000310: 9965 edbe a4fd 153f 6ce8 9fbe 2998 d1be
00000320: 3d54 d6be fc5a 07bf 98a6 f3be 1062 3dbf
00000330: e33d a3be 6249 c53e bf67 11bd 2bc4 13bf
00000340: 460d ffbe 7b6e 15bf ad13 04bf e41f b63e
00000350: d703 3dbe 3ad9 0fbf 9619 d43e 63e9 083e
00000360: 074c 5cbf a67e d0be 14cf 08bf 9f33 e7be
00000370: 743c 39bf 81e1 57bf cbcd f8be 0994 debe
00000380: 5083 b3be f4fa e8bd 7649 22bf f6ca 5b3e
00000390: 5eb6 0fbf 6173 8bbe 2983 bdbe fb7b 20bf
000003a0: ee77 a3be f8cc a0be 1c4f 163e 58cc 003f
000003b0: 1ab4 83be d8b0 69be 595d 5ebd 0b60 17bf
000003c0: 5b0b 31bf f21c 5dbe d8b9 b0be 9f33 26bf
000003d0: 1c1e dcbe f533 f53e ed14 20bf cb78 b6bc
000003e0: 7b5c 99bc 6a73 01bf 65d4 e23d 4525 a0bd
000003f0: b5fe 15bf f3e3 0abf 7fe8 a0be ddf6 73be
-0.73728704 -0.37300837 -0.50388056 -0.6674986 -0.42499793 -0.2504737 -0.753697 -0.027477704
-0.64505833 -0.81673265 -0.36423686 -0.4694188 0.08421148 -0.435589 -0.3022751 -0.5006523
-0.5095459 -0.7878096 0.29615277 -0.27479637 -0.5746559 -0.40649006 0.12871955 -0.692875
0.18200934 -0.5741559 -0.15674502 -0.2677792 -0.228096 -0.8287803 0.1674273 -0.47288153
-0.141299 -0.15945156 -0.04608593 0.24761292 0.014044924 -0.60228163 -0.40294778 -0.49398217
0.46729213 0.019531738 -0.11228881 -0.60634905 -0.4159998 -0.53589946 -0.54071146 -0.6909549
-0.44046536 -0.57160664 -0.57377195 -0.58934855 -0.57798064 0.06601881 -0.7382274 -0.53079545
-0.23724972 -0.2570096 -0.4148767 0.47029102 -0.46873304 -0.12517585 -0.6086491 -0.8148334
-0.49522096 -0.7058783 -0.19665773 -0.10919268 -0.43474597 -0.4319698 -0.5167148 -0.43182534
-0.62412757 -0.69641197 0.439636 -0.38256127 -0.6327579 -0.7137544 0.14819923 -0.64413625
-0.2950435 0.15679805 -0.44887885 -0.6746605 -0.1807203 -0.24743189 -0.35726804 -0.67774034
-0.40492597 -0.6853677 -0.0128155835 -0.5549542 -0.614116 -0.43215498 -0.7281451 0.16391969
-0.34595567 -0.44169122 -0.58401334 0.20342435 -0.2377866 0.33742672 -0.5251508 -0.0526819
0.0906975 -0.51640815 0.37836966 -0.21737042 -0.16206026 -0.90581375 -0.38885397 -0.46145532
-0.6652898 -0.39114392 -0.45812914 -0.55776274 -0.5945135 -0.530633 -0.4370815 -0.647837
-0.78244424 -0.34373012 0.025812278 0.053196345 -0.029052278 -0.41360685 -0.16563115 0.41549966
0.2033348 -0.3395648 -0.5390645 -0.33892688 -0.72648907 -0.38678446 -0.06982958 0.6761448
-0.5334761 -0.46716142 -0.36185017 0.037360467 -0.4439174 -0.43931183 -0.5146816 -0.4636324
-0.551285 -0.3695479 0.64981 -0.5488696 0.44571483 -0.700632 -0.36157927 -0.6892655
-0.6004234 -0.007754924 -0.4898791 -0.2767046 -0.50425065 -0.5805688 -0.3741242 0.16739435
-0.6520673 -0.72381675 -0.67362446 -0.37591448 -0.4864335 0.19805464 -0.42807856 -0.74531263
-0.25803658 -0.298487 -0.54775983 -0.5647651 -0.43907896 -0.83769375 -0.75258785 -0.5626701
-0.06907134 -0.28276253 -0.20496246 -0.43309474 -0.4293147 -0.31490895 -0.5248437 -0.17414303
-0.41404667 -0.5210387 -0.466478 -0.54523325 -0.5112538 -0.7117303 -0.41569248 -0.2843505
-0.13874172 -0.76818967 -0.39882892 0.47208917 -0.46366575 0.5859015 -0.3123201 -0.409364
-0.41861144 -0.52873206 -0.47588038 -0.73977757 -0.31883153 0.3853255 -0.03549933 -0.57721204
-0.49814814 -0.58371705 -0.5159252 0.35571206 -0.18458496 -0.56190836 0.4142577 0.1337028
-0.8605351 -0.40721625 -0.53440976 -0.4515657 -0.7235787 -0.84328467 -0.48594508 -0.43472317
-0.3506112 -0.113759905 -0.6339334 0.21464142 -0.56137645 -0.27236465 -0.3701413 -0.6268918
-0.31927437 -0.3140638 0.14678615 0.50311804 -0.25723344 -0.22821367 -0.054288242 -0.59130925
-0.6915795 -0.21593073 -0.34516788 -0.6492252 -0.42991722 0.47891203 -0.6253193 -0.022274395
-0.018720856 -0.5056673 0.11075667 -0.078196086 -0.5859178 -0.5425407 -0.3142738 -0.2382464

bn1.running_mean f4 [400]
00000000: f512 3e3f 1a20 ba3d 97d8 36bf 5623 213e
00000010: 8d49 3dbd eb71 56be c714 dbbe 34d0 a5bd
00000020: d4c4 a2ba 7904 12bf 821f 253e d019 29bf
00000030: 38f3 0e3e 1f5f 42bd 9dd7 f53c 9f55 823d
00000040: 2d0d 53bd 33b2 24bf 655c 8d3f bafa 283d
00000050: 9339 5ebe 389c 2c3c bbcf 133f 64ab 72bf
00000060: 799d eabe 5d6e 773d 1c6b 203e d7d0 c7bb
00000070: c9ec 23bf 19cd 13be 0e36 913e 5e51 a2bd
00000080: c2d7 c4be 0c74 4cbe d345 a0bf 7015 a0be
00000090: 242e 063f 9d76 19bf 70b2 ea3c d928 c1be
000000a0: f53a 473e 8c0a 44bd 579a a0be f3ef e9bc
000000b0: 0cab 363e 9225 263d f78a 02bc bcd8 50be
000000c0: f41f 0c3e 37d3 4cbf 83ef 19bd c856 90be
000000d0: df74 1bbf e6df ce3d e08c 5a3b 1fc1 a3be
000000e0: baa1 033f eaac e7be 54e2 6f3f bdbe 993e
000000f0: 5eb3 863d e05c 0e3f 28d0 dd3d 7bcb 68be
00000100: f56c e23d 9f88 2bbd 5c56 69bf 1a88 98bd
00000110: 9d90 febe cc3d 0c3e ebef 523e d633 e4be
00000120: 9978 c8be 1f13 6ebf 4742 8bbe 0ea2 353e
00000130: cf18 053e 11cb afbd 9618 eb3d 7ce1 a7be
00000140: 6775 7cbd c576 16bd 85b9 f53c 5ac5 24be
00000150: 9c80 4f3e 71b3 7b3e ee28 82be 6244 413e
00000160: 8ade 20bf 2ae5 81be 32b1 803e 642c 85bf
00000170: c32b 323d 6418 7a3d e432 6dbf fdb8 153e
00000180: 8580 c7bd d2f3 e13d 1803 09be 96bd 503e
00000190: 027d 9fbf 3242 023f 2921 4a3f b200 a9be
000001a0: 85d0 513c 3fc3 a03e 0ba0 e73d fbeb 1f3e
000001b0: 5534 613f 5320 82be b876 03be 0cf8 b5bd
000001c0: fc8e 82bf 4af3 033f f2b6 3ebd e6fe 0dbd
000001d0: a592 50bd f0d0 a83c 4deb 5c3d 1dc3 24bf
000001e0: 462c c0be d7bb e03e bbe3 30be 2cc6 fb3d
000001f0: 7cda af3d 5202 5fbe b388 a5be d756 aebe
00000200: e211 aa3e 4ef5 d4bb 3a4d b9bd f165 3e3f
00000210: b967 a5be 79f0 a63d bc54 fa3e c0ea f13d
00000220: 9ab7 95be eb85 1c3f cb44 e53d bffb 233e
00000230: a824 03bf 7408 5d3e ed3e b93f ce5b 0cbf
00000240: 8491 4abf 26b1 763d 65a6 f6bd acf3 bcbf
00000250: 2fe2 19be c4a9 353f 9a70 48be 4143 ad3c
00000260: cc70 093f 0835 a63e d753 883e 509d b9bc
00000270: 502c e53a 05ea 53bf e9d4 b6be ed44 f93d
00000280: 2de6 893e ed36 4cbf 2a57 46bf 6b43 4e3e
00000290: 6111 09be fad4 1d3d 630d a33d dd6a 23bf
000002a0: 5122 00bd 986c d53e 306d cbbd da72 e3bd
000002b0: e084 44bd 0859 24be 96bc 23bf c42a 2a3f
000002c0: aa3b 12bb 81d5 d83e 4ec1 abbe 8904 3a3e
000002d0: 712f 553e 740a 7d3f 000a 7d3e 7df2 c23d
000002e0: 5676 86be ec06 a0be 7cf7 7b3e 093c ea3e
000002f0: 3994 fc3d 9f40 c8be e6fe 0fbd 7a0d 69bf
00000300: 0df5 303f cafa 0fbd db16 95be 9855 4fbe
00000310: 4303 43bf f148 613e 45b0 9a3e 7de6 af3e
00000320: 1197 65bd 536e 59bd 48fd 07be ad61 8dbd
00000330: be71 363d 86bf 80be a946 65be fa2b 893e
00000340: b319 cd3b 79be 223e 60f3 5ebd 6e2c 223e
00000350: 635f 1fbd ec81 34be d164 e73e 18ea c7bd
00000360: e539 4bbe 075e d1be 38b0 69bd d8fe 5c3e
00000370: 5e7b 3cbe 4ff5 02bf bb63 913e 8e88 083d
00000380: 0808 463e cddb f5be bd54 df3d 15b0 a0bf
00000390: 7366 e6bd dc6f 58bc f902 1bbf e8a8 19bf
000003a0: 2241 353e 6e4d 4c3d 04b7 d2be 192e 14be
000003b0: 0d35 1d3e cfb9 6e3e 27ac 263e d434 b1bd
000003c0: 54ae f53d 76be 54bd 11cf e4be 378f 2fbf
000003d0: 3dd0 12bf 0807 a5bd e88b d5bd adae 9e3d
000003e0: 3ff7 b43e 6ede 833d e107 183f f437 293f
000003f0: 65a8 da3e b384 49be d814 313f 2df7 9dbc
0.74247676 0.09088154 -0.7142424 0.15736136 -0.04621272 -0.20941894 -0.4278929 -0.08096352
-0.0012418278 -0.57038075 0.161253 -0.6605501 0.13959968 -0.047453996 0.030010039 0.06363987
-0.051526237 -0.6433441 1.1043822 0.041254736 -0.2170165 0.010535292 0.57738847 -0.9479277
-0.45823267 0.060407985 0.15665859 -0.0060978937 -0.6403318 -0.14433707 0.28361553 -0.07925676
-0.3844586 -0.19966143 -1.2521309 -0.31266356 0.52414155 -0.59946615 0.028649539 -0.37726477
0.19456084 -0.04786162 -0.31367752 -0.0285568 0.17838687 0.040563174 -0.007967702 -0.20395178
0.13684064 -0.8000979 -0.03758193 -0.2819121 -0.60725206 0.10101299 0.0033348128 -0.31983277
0.5141865 -0.4524911 0.93704724 0.30028334 0.0657718 0.55610466 0.10830718 -0.22733872
0.11055938 -0.04187834 -0.911474 -0.07447834 -0.49719706 0.13695449 0.20599334 -0.44570798
-0.3915451 -0.92997926 -0.27199003 0.177376 0.12997745 -0.08583654 0.11479299 -0.32789218
-0.0616354 -0.03673436 0.02999569 -0.16090909 0.20263904 0.2458017 -0.25421852 0.18873742
-0.6283957 -0.2537015 0.2513519 -1.0404172 0.043498766 0.061058417 -0.9265578 0.14621349
-0.0974131 0.11032833 -0.13380086 0.20384821 -1.2460024 0.50882256 0.7895685 -0.33008343
0.012806063 0.3139896 0.11309823 0.15617363 0.8797048 -0.25415286 -0.12838256 -0.08885202
-1.0199885 0.51543105 -0.04656119 -0.03466692 -0.0509211 0.020607442 0.053935338 -0.6436022
-0.37533778 0.4389331 -0.17274372 0.12293658 0.085865945 -0.21778229 -0.32330856 -0.3405063
0.33216769 -0.006498969 -0.09047933 0.743743 -0.32305697 0.08151335 0.48892772 0.11812353
-0.2924164 0.6114184 0.11194762 0.16014002 -0.5122781 0.21585256 1.4472328 -0.5482758
-0.7912829 0.060227536 -0.12043456 -1.4761863 -0.15027688 0.70962167 -0.19574204 0.021150233
0.5368774 0.32462335 0.26626465 -0.02265802 0.001748452 -0.8277896 -0.35709313 0.1217135
0.26933423 -0.7977131 -0.7747675 0.20142905 -0.13385536 0.03853319 0.07961538 -0.63834935
-0.031282727 0.41684413 -0.09932935 -0.111058906 -0.047978282 -0.16049588 -0.63959634 0.66471505
-0.0022313395 0.4235039 -0.33545917 0.18165793 0.20818879 0.98844075 0.24710846 0.09518907
-0.26262158 -0.3125528 0.24606127 0.45748928 0.12332959 -0.39111802 -0.0351552 -0.9103619
0.6912392 -0.03515128 -0.29119 -0.20247495 -0.7617685 0.22000481 0.30212608 0.34355536
-0.05605227 -0.05308373 -0.13280213 -0.06903396 0.044542067 -0.2514612 -0.22390236 0.26791364
0.006259167 0.15892972 -0.05443132 0.15837261 -0.038909327 -0.17627686 0.45194104 -0.09761447
-0.19846304 -0.4089205 -0.05705282 0.2158159 -0.18406436 -0.5115556 0.283964 0.033333354
0.19339001 -0.48019257 0.109048344 -1.2553736 -0.112500094 -0.013210263 -0.6055141 -0.60023355
0.17700627 0.04987853 -0.41155255 -0.1447071 0.15352269 0.23313068 0.16276608 -0.08652654
0.11996141 -0.05193945 -0.4468923 -0.68577904 -0.57348996 -0.08057982 -0.104270756 0.077481605
0.35344884 0.064389095 0.5938702 0.66101 0.427066 -0.19679527 0.6917243 -0.019282902

bn1.running_var f4 [400]
00000000: 6803 263f 75c4 2c3f d4bd a23e 4c2d 5c3f
00000010: e996 fb3e 4470 4b40 6525 8f3e f64a 613f
00000020: 6e86 203f 52c2 783f aeae f83f 893a ff3e
00000030: b18f ac3e 4ac6 5a3f 33f6 5f3f 5fb4 833e
00000040: b7c9 be3e 151a 6e3f 0365 bc3f 6258 d43e
00000050: fbcf a03e f7dd 753f f626 2340 beaf 823f
00000060: 011e 9b3e d17f 333f 6281 ea3e 1758 0a3f
00000070: dc33 1e3f 43a8 b03f c035 103f f029 033f
00000080: 4216 223f e989 e53e 9b2f 913f 2f7e b13e
00000090: 3633 ce3f ad62 ff3e 0883 593f 5cc1 c13f
000000a0: abe6 a73f aec1 fc3e 207e b03e 3ebe 343f
000000b0: d5ee de3e 0fbe bf3f 33d6 683f e5ea 0b40
000000c0: a277 743f 296d 3f3f 6f0d 7c3e 4df3 2d3f
000000d0: eeab cf3e e5af de3e e42e b63e e83a 533f
000000e0: d978 c43e 935c 2b3f 2af4 fa3e f943 9c3f
000000f0: 14f4 763e f6a4 3d3e 1ca9 143f b9c4 f63e
00000100: 0860 8e3e 47e5 723e af0a 5c3f 5b3f 2a3f
00000110: f4a9 853f 4b40 853f fd87 cf3e 8566 a03e
00000120: 59ad 403f c05b e33e 51ab 993f 8c66 9b3e
00000130: f96b a43e 85a4 1a3e 0f91 c43f 85c9 c13e
00000140: 91b5 0e3f ba3a d43e 61c4 873f b8c1 5e3f
00000150: ba55 8f3f ef36 883f 8ce5 0d3f ab9e 553f
00000160: 86c9 cf3e 6d5f 3d3e 2386 ef3e 3f89 9c3f
00000170: e2b0 dc3e 90f6 193f 27f1 953f dd66 633f
00000180: 6284 d13e f898 413f a40a 2c3f e5c3 473f
00000190: 4cd8 323f 5d3c be3e e3d8 ad3f b27e a63e
000001a0: b16e 043f 4a0c 3e3f 0509 1c3f 58af 683f
000001b0: 85eb 1340 0bf3 503f 958b 243f 8a38 bf3f
000001c0: cb76 a33f 4799 2d3f c3b9 4b3f 9d4a 783f
000001d0: 3a46 a53e b245 193f 8fa8 013f 20a9 973f
000001e0: 9ba5 513f 3105 e73e f2e9 7c3e b0a8 d03e
000001f0: 2c7e a13e 06c3 f63e 7b1e a63e 1f68 1340
00000200: 4905 213f 5f5e 5f3f d8e7 2140 baab e63e
00000210: 2330 473f 1f07 933f cd0e 593f 7be5 813f
00000220: 72ff d33f 2ea2 5b3f 0f90 7c3e cbca 463f
00000230: 671b 753f 9459 413f 0cc5 7f3f a32a 0f3f
00000240: da07 043f e657 b13f e775 1e3f aeb6 983f
00000250: 328b d53f bed0 7b3f cd06 223f 1dcd b03e
00000260: 7e3f b93f 413f ef3e 5b83 203f 72dc 8d3e
00000270: da66 d63f b051 623f 856b 103f 58ea d53e
00000280: cf40 e33e 444c 923f a96d 493f 147d 3d3f
00000290: 2e01 2e3f 2560 0b3f 3aa6 0b3f c829 4c3f
000002a0: 6e9a eb3e 4a32 503f 3d2a 533f 8795 f43e
000002b0: 9b0d 373f 9710 013f 4fcf cc3e 5ed2 1f40
000002c0: 5b6d e33f 67d0 c13f 16aa c53e 2a62 253e
000002d0: 9715 703f c02d 893f 024e 323f aee9 d63e
000002e0: d24a 923e ea15 263f 94a1 b23e 833a d53e
000002f0: 6e6f 153f bcae ff3e 1c88 cb3e 83d6 e53e
00000300: aa8a 263f e369 3240 9fe6 8d3e 6619 cf3f
00000310: ddee bf3e 3adc cb3f cfff 273f 91a3 533f
00000320: f6a5 e03d 3542 5b3f c0d7 1d3f c894 123f
00000330: af35 5e3f 2e1f b73f ebb5 703f 1940 d93e
00000340: 6bb3 243f 7f0d c83e 85fd 893f 9d71 2140
00000350: 8e55 073f 3b88 223f 607b 3140 1b8c f73f
00000360: 9be3 a23e 12c5 1e3f 189d 103f 37f6 8d3f
00000370: aeae 983e 4a2d 183f 5c15 b33f e55b c33e
00000380: 9fa7 643f dc42 123f 8867 9b3e 5ee4 3d3f
00000390: 6a25 303f 5006 c43e b1ab bf3e 01f1 3f3f
000003a0: d739 c13e 57d7 883f 2a70 4a3e 7ac7 e43e
000003b0: 3ef0 0c3f 4310 073f 0f00 223f a989 303f
000003c0: 426a 923e 459c 4c3f d14a ed3e 0162 2e3f
000003d0: 3163 8c3f 2cf3 fe3f 4f56 d63d 7a38 703f
000003e0: f3d7 a63e 7816 303e 4269 d13f 3db1 453f
000003f0: 38cf dc3e ec40 073e 4307 9a3f 0a05 1d3f
0.6484895 0.6748727 0.31785452 0.8600662 0.49138573 3.1787271 0.27958217 0.88005006
0.62705123 0.9717151 1.9428308 0.49849346 0.33703378 0.85458815 0.87485045 0.2572355
0.3726327 0.9300855 1.4718326 0.4147368 0.31408677 0.96041816 2.549253 1.0209882
0.3029633 0.7011691 0.45801836 0.54040664 0.6179788 1.3801349 0.56332016 0.51235867
0.6331521 0.4483178 1.1342653 0.34666583 1.6109378 0.4987997 0.8496556 1.5137134
1.3117269 0.49366516 0.34471226 0.70602787 0.4354159 1.4979876 0.9095184 2.1862118
0.95495045 0.7477594 0.246145 0.6794937 0.4056086 0.43493572 0.3558265 0.8251176
0.3837345 0.6693813 0.49014407 1.2208244 0.24116546 0.18519959 0.5807054 0.48196962
0.2780764 0.23720275 0.859538 0.6650292 1.044249 1.0410246 0.40533438 0.31328216
0.7526451 0.44405937 1.2005407 0.30351675 0.32113627 0.15101822 1.5356768 0.3784906
0.557458 0.41451055 1.0606805 0.8701434 1.1198037 1.0641764 0.55428386 0.83445233
0.40583438 0.18493433 0.46782026 1.2229384 0.431037 0.6014185 1.1714219 0.8882883
0.40921313 0.75624037 0.67203736 0.78033286 0.6986129 0.3715543 1.3581814 0.32518536
0.517314 0.742375 0.6095126 0.90892553 2.31125 0.81620854 0.64275485 1.4939129
1.2770628 0.6781201 0.79580325 0.9698885 0.3228014 0.5987197 0.50647825 1.1848488
0.8189332 0.45121148 0.24698618 0.40753698 0.31541574 0.48195666 0.3244513 2.30323
0.6289869 0.87253374 2.5297756 0.45052892 0.77807826 1.1486548 0.8478821 1.0148157
1.6562331 0.8579434 0.24664329 0.7765319 0.9574494 0.7552731 0.99910045 0.55924433
0.5157448 1.385495 0.61898655 1.193075 1.6683104 0.9836539 0.6329163 0.3453149
1.4472501 0.46727946 0.6270043 0.2770725 1.6750138 0.88405895 0.5641406 0.41780353
0.44385383 1.1429524 0.78682953 0.7401898 0.6797055 0.5444358 0.54550517 0.79751253
0.46016258 0.81326735 0.82486326 0.4777033 0.71505135 0.5041594 0.40001914 2.4972148
1.7767748 1.5141724 0.38606328 0.16150728 0.93782943 1.0717087 0.6965028 0.41975158
0.28572708 0.6487719 0.348889 0.41646203 0.58373153 0.49938 0.3975228 0.44890222
0.65055335 2.7877128 0.27715012 1.6179626 0.37486926 1.5926583 0.6562471 0.8267146
0.109691545 0.856479 0.61657333 0.5725827 0.86800665 1.430639 0.94027585 0.42431715
0.6433627 0.39072797 1.0780493 2.5225594 0.5286492 0.6348912 2.7731552 1.9339632
0.31814274 0.62019455 0.56489706 1.1090764 0.2982077 0.59444106 1.3990893 0.38156047
0.8931827 0.5713327 0.30352426 0.74176586 0.6880709 0.38286066 0.37435678 0.7497712
0.3773944 1.0690717 0.1976935 0.4468344 0.5505408 0.5275919 0.6328134 0.6896005
0.28596693 0.7992595 0.46346143 0.6811829 1.0967771 1.991796 0.10465681 0.93836176
0.3258663 0.17196071 1.6360247 0.7722357 0.43126845 0.1320836 1.2033466 0.61335814

fc2.weight f4 [300, 404]
00000000: 7dc8 77bd fd97 a93d 4d45 7b3d b71a 85bc
00000010: a254 853c e687 d8bd 01a6 9cbc 1eeb c23b
00000020: 3387 83be 7ebd 943d 62aa 8b3d 68ef 813d
00000030: 719c c7bd 5bb2 16bd cee8 3abd 7ab7 243e
00000040: d544 00be 2d18 f2bd 005d c7bc 060a 2abd
00000050: 7881 e9bd 88ab 3abd b640 5e3d 0e12 c33d
00000060: d91a 903d a1df 65be 5b1f ba3d 8b7f 31bd
00000070: 9848 e73d 0a0a 6a3d 334e 233e 744a d8bd
00000080: 7a50 bb3d 13ef 5cbe c397 d53d 6ae2 c2bd
00000090: 32ae 4b3c 8154 64be 3524 943e 913d 973d
000000a0: 72a3 a23c 3269 ddbd 0ac6 19be 872f d5be
000000b0: 7cce 6e3e 7c3a ae3b 7621 2bbd c45f 10be
000000c0: d7d3 e63d f1f1 5b3e b88d 0e3e e92b 213e
000000d0: eac5 b83d 6786 b83d e0ad 6bbd 62d5 36bd
000000e0: 0f8f 0a3e 8d0a 403e f784 98be 03ad 6cbc
000000f0: ffe6 833d d19e 9fbc f3e6 9abe 1e59 773e
00000100: 7324 1ebe 2944 f5bd 5abf 9abd 2316 f03c
00000110: 43f5 123e 7fd2 b23d 9702 b5bc 61a8 b3bd
00000120: 3e9b f53d 1272 20be 7f05 2b3e 5e9d d0bb
00000130: dec0 263d 47df be3d 255e 8bbc 885f 33bc
00000140: fbb3 493e 1703 683d 0241 1f3d 0e6f 11be
00000150: e002 873d 8c84 763d 49b7 633e c8f1 063d
00000160: 9fd2 0b3e 615d 18bd 4866 d93d fe77 46bd
00000170: 9b60 c1be cea6 17be d5f1 133d da73 c53c
00000180: daa9 c23d e883 febc 2f14 b5bd 14f4 30bd
00000190: f321 a4bd 7a2a 7abd bc83 993d 8a17 3bbd
000001a0: 2b5f 223d 10ec 01bd 1e80 383d 1da6 02bd
000001b0: 2c5a 163e 14a5 2e3d ac0f 47bd c380 523d
000001c0: 76ea 75bd 7e9a a73c c8ae 953d 0759 313d
000001d0: 92c1 0ebe cf3b ef3c 25cb 10be eac3 b23d
000001e0: 5d7d 62be 4b89 30bd 463f e53d aa74 073d
000001f0: 772d 45bd 84be 1bbe e76d 4c3c 7fd1 293e
00000200: 883a 213e c6a9 a53d a19d 233e 2e85 253c
00000210: 5202 bbbd a140 c6bd 44e5 4b3d 318b 1dbd
00000220: eee1 313e 6c34 4c3c 3a15 6abd 9eb8 37be
00000230: 5966 4d3d 9202 123d 6dd9 373e 2322 9dbd
00000240: fadf d83d 3507 fe3d eb57 3e3d b394 3a3d
00000250: 9372 843c 0aa6 06bd f074 573e c95e a2bc
00000260: 7807 51be 7861 f9bd 7297 3fbd 85b5 80be
00000270: acfb a43d 23ee d23b 4058 283e fcd8 19bd
00000280: cac9 efbd b119 27be ccfc 9ebe 94ce 1bbe
00000290: 2b83 b4bd 5455 8c3d 0c5c 1fbe 1e5b b93d
000002a0: 91de e8bc 0c29 29be 6850 873d f410 c13d
000002b0: 1d29 653d 7539 9d3b 924b 2bbe ef3b 023e
000002c0: 619e cfbc 0e5a 1abe 962b 7f3c b50a 53bd
000002d0: d0bd 6fbd 7abd 2f3d abbd 203e e46b debd
000002e0: c25f 73be 55d6 ec3c e739 3abd 8786 923d
000002f0: e1ed 95bd e799 ca3d 6216 f1bd 65f0 9cbc
00000300: cd91 9d3a dead 5c3d 5d56 573d 62b8 21bd
00000310: c623 a43e f9d4 603d e758 27be fbc2 2fbe
00000320: eab1 033c 6919 a13d 892e a33d 324a 4fbd
00000330: 19b4 4f3d 7682 03bd 8170 a13c 7868 a23e
00000340: 96a9 63bd 2190 81bd f47a 703c ffdb ad3d
00000350: b7f3 013e bb75 cbbc db77 00be 31df 15bc
00000360: 93f7 a0bd 92ce 0f3d a62b 67be c919 233e
00000370: 4186 bcbc 462d 9e3d e4fa 173e 5e8a 28be
00000380: 4b7e dcbd 56f9 443d ac5b 55be 3e13 0d3d
00000390: 75ca 8cbd 8283 7bbd 079a d0bc b1e3 913d
000003a0: f922 52bd 160f fdbc d748 91bd 7245 583c
000003b0: 9ab2 363e 16f5 16be 3d57 133d 99d0 8c3d
000003c0: 2ee1 97be c22a dabc cc06 b3bd 425d 663d
000003d0: 6df8 183d e4f8 0abc 1ee0 5cbd 5c62 10bd
000003e0: e116 08be 7e58 afbd 1a98 8d3d 087b 303c
000003f0: 9fa6 b5bd 4d81 cebd eb99 563d 8b0a 9dbc
-0.060493935 0.082809426 0.061345387 -0.01624809 0.016275708 -0.105727956 -0.019122126 0.0059484383
-0.25689086 0.07262705 0.06819607 0.06344491 -0.09746636 -0.036791187 -0.045632176 0.16085616
-0.12526257 -0.118210174 -0.024336338 -0.041513465 -0.11401647 -0.04557374 0.054260932 0.09524928
0.07036371 -0.22448589 0.09088012 -0.043334525 0.11293143 0.05713848 0.159478 -0.10561076
0.09146209 -0.21575575 0.10429337 -0.09515841 0.012431668 -0.2229786 0.28933874 0.0738479
0.019853327 -0.1081108 -0.15016952 -0.41637823 0.23320955 0.0053170305 -0.041779958 -0.14099032
0.11270874 0.21479012 0.13921249 0.15739407 0.09022124 0.0901001 -0.057538867 -0.04463709
0.13531135 0.18754025 -0.29788944 -0.014445546 0.064405434 -0.01948491 -0.30254325 0.2415509
-0.15443592 -0.11975891 -0.07556029 0.02930743 0.14351372 0.08731555 -0.022095961 -0.0877235
0.11992501 -0.15668514 0.16701315 -0.006366416 0.040711276 0.093199305 -0.017012665 -0.010948069
0.19697563 0.05664357 0.038880356 -0.1420252 0.06592345 0.060185 0.22237886 0.032945424
0.13654564 -0.037198428 0.10615212 -0.048454277 -0.37769017 -0.14809725 0.0361193 0.024103094
0.09505053 -0.031068757 -0.0884174 -0.04320152 -0.08014288 -0.061075665 0.074958295 -0.045676745
0.03964154 -0.031719267 0.045044057 -0.0318967 0.14682835 0.0426379 -0.04859893 0.051392328
-0.060038052 0.02045941 0.073087275 0.043297794 -0.13941029 0.029203324 -0.14139993 0.08728774
-0.22118135 -0.043099683 0.11193709 0.033070244 -0.04813906 -0.15209395 0.012477375 0.16583823
0.15744984 0.08089022 0.159781 0.010102553 -0.09131302 -0.09680296 0.04977919 -0.03846282
0.17371342 0.01246367 -0.05714915 -0.1794152 0.050146434 0.035646982 0.17954035 -0.07672527
0.10589595 0.124037184 0.046470564 0.045551967 0.016167914 -0.03287319 0.21040702 -0.019820588
-0.20413005 -0.12176794 -0.04677529 -0.25138488 0.08055815 0.0064370795 0.16439915 -0.037560448
-0.1170841 -0.16318394 -0.31052244 -0.15215522 -0.08814081 0.068522125 -0.15562457 0.09050582
-0.02842644 -0.16519564 0.06607133 0.09427062 0.05594741 0.004798109 -0.16728047 0.12718175
-0.025344076 -0.15073416 0.015574357 -0.051523883 -0.05853063 0.04290531 0.15697353 -0.10860422
-0.23766997 0.028910795 -0.045465376 0.07154565 -0.073207624 0.09892636 -0.11771847 -0.019157598
0.0012021601 0.05387675 0.052572597 -0.03948248 0.32058543 0.054890607 -0.16342507 -0.17164223
0.0080380235 0.07866175 0.0796786 -0.050607868 0.050708864 -0.03210684 0.019706966 0.31720328
-0.05558165 -0.063263185 0.014677752 0.084892265 0.12690626 -0.024836412 -0.12545721 -0.009147451
-0.07859721 0.03510911 -0.22575244 0.15927805 -0.023013236 0.07723479 0.14841801 -0.16459033
-0.10766276 0.048089348 -0.20835751 0.03444218 -0.06874553 -0.061404712 -0.025464071 0.07123507
-0.051302884 -0.030890983 -0.07093971 0.013200151 0.17841569 -0.1474193 0.03597187 0.06875724
-0.29663986 -0.026631717 -0.08741531 0.05624128 0.037346292 -0.008482192 -0.053924672 -0.035250053
-0.13289978 -0.085618004 0.06913777 0.01077152 -0.08869671 -0.10083256 0.05239288 -0.019170066

fc2.bias f4 [300]
00000000: cef7 b5be 6ecb 313f 5d7f fe3e 6ebf 69be
00000010: fc3a 88be 6746 e9be 2caa fe3e a433 a9be
00000020: c05f 223f 9305 d03e 7101 b8be adf3 5fbe
00000030: af32 6e3f d462 413f 6887 873e 9edc b33e
00000040: cf68 0c3f d2b9 5abe bf33 813e 6ffe ff3e
00000050: 465e 0c3f bd75 1cbe 7e03 e8be f6f4 87be
00000060: 8398 fdbd d6bd b9be 5a02 e03e 046d 1a3f
00000070: d0c5 1f3f 1de9 68be 6c08 eb3e 4f0a 293e
00000080: 812d 9c3d a268 3d3f 6480 bf3e 142a 68be
00000090: 5404 aa3e 7ca6 0cbf ea80 0e3f d3f9 0c3f
000000a0: 18ce c7be 4d3f 25be c8ba 5d3f e0e9 f53e
000000b0: 3597 0d3f bccc 5fbe e0dc 5fbc 337e 33be
000000c0: cadc c83e 5fba 5a3f 9227 d03e 085c 7dbe
000000d0: b923 cbbe 656b 86be a4d1 98be 28c7 46be
000000e0: bd47 8ebe 2578 b43e ccd2 ed3e a6d8 ae3e
000000f0: abab ee3e e428 bf3c 0dfa bf3e 118d 963e
00000100: 9e85 c53e c4e0 113f 12f6 9d3e 0941 a5be
00000110: fb84 0b3f 5d72 843e d5cb 2c3f 8899 41bf
00000120: 702c 353f e441 393f 04a4 183f 13e0 083f
00000130: a7df c63e 535a f33e fe64 0f3f acfe 863e
00000140: 28cf c1be 6048 053f 7c5b 93be 7f6e 473f
00000150: ecdf 0e3f 8204 d4be f054 7b3f 8f33 bc3e
00000160: 5d66 b63e 213f 98bc 9f23 9fbe f471 413f
00000170: 02e3 c5be b23b b5bc 9878 0b3f 9500 06bd
00000180: 6c58 a13e e5a7 ed3e 0334 fdbe 5337 a33e
00000190: 013e cd3e b7e7 ccbd 8db6 943e 1be7 b6be
000001a0: da0a 97be 617e 51be 4d06 9dbe ec24 e23e
000001b0: 1ba2 e53e 4057 94be 11e2 dabe c7e6 033f
000001c0: 86ca 3f3f 330a 36be c5f1 a23e d9ec 143e
000001d0: e981 a93e 5fa1 703e 52d5 c13e 5ca6 d83e
000001e0: b63f 073f c5d9 423f 4945 4fbe 9ea9 213f
000001f0: a8d0 98be fe49 1b3f eda6 85be b1fc 0bbe
00000200: 98b5 2fbd d9cb 6f3f 17d0 b4be be56 8ebe
00000210: 82fd b9be 7af5 373f c004 9ebe 20e3 dd3e
00000220: 7d0d 94be 4d13 a9bd a362 723e 11c9 c0bd
00000230: 5ac1 eb3e 9dfd 1abc 43fb 07bf 1ab2 f9be
00000240: 93e8 bd3e 2128 663e 7888 f23d 02a4 573e
00000250: 26a6 b9be ac59 58bf 14a0 9f3e c777 463e
00000260: 8c0d 8d3e 67a3 023f 9740 59be f563 ce3e
00000270: 4883 01be f244 193f 22ab a1be 6709 a33e
00000280: 2082 c0bd dc5a 4a3f 6087 b03e 22bc ba3e
00000290: fe4e 103f fe5f 8c3e eb5f 8bbe 41d3 3fbe
000002a0: 4a4d c43e ff54 98be 555b 833e 9767 e63e
000002b0: 0b2a 06be 319b abbe 97dc 1bbf 329d 9abd
000002c0: 86eb e53e 5664 193f 45df 46be cd5e 0ebf
000002d0: 99f5 e2be 40bf 7a3e 56fb debd af56 133f
000002e0: dc47 d3be 2088 95be ac29 b9bc 0c7f e73e
000002f0: a433 ce3e 0730 243e 1117 92be b56d bb3e
00000300: d880 47be f4ed bf3e 8a99 fcbd 1e87 ac3e
00000310: 6b56 d9bd 50db da3e 0fb5 f33e be95 e93d
00000320: b7ae 0a3f 3592 b3be bdd9 a9be 0f81 a4be
00000330: f15a 9fbe 3901 93bc b005 69be 96ca 9a3e
00000340: bc4f ee3e 951d 413e f910 ee3e ba6a 9cbe
00000350: eb9d 22be 285d bf3e 3eac b33e 70a9 a5be
00000360: 007b 583f 0fc6 913e 58fe b43e b6e5 993e
00000370: 6d8b 94be 569a 5f39 4fa1 973e 7db1 1b3d
00000380: 5bf3 90be 24fd f93e 5558 0bbf 57ac 1d3e
00000390: aa15 dfbd 22b3 0fbf 5a3d 6a3d 7424 2fbf
000003a0: 1e01 f93e 4c07 c8be c10f f93e e7af 5ebe
000003b0: 55ac 07bd 39d9 243f 946a 8f3e 7106 80be
000003c0: 49c6 7cbe c861 993e 325f 83be 3342 c4be
000003d0: e61a 323f 2e6b c73e ef4b 1f3f 8cb3 c73b
000003e0: bf3c d53e 91dd c23e 33f8 fdbe c70c 8fbe
000003f0: 9a0c 303f c3b2 fabd e28e 0dbf f150 193f
-0.35540622 0.69451034 0.49706545 -0.22826931 -0.26607502 -0.45561525 0.49739206 -0.3304721
0.6342735 0.40629253 -0.359386 -0.21870299 0.9304609 0.75541425 0.26470494 0.35129255
0.54847425 -0.21359947 0.25234792 0.49998805 0.5483135 -0.15279289 -0.45315164 -0.26554078
-0.12382605 -0.36277646 0.43751794 0.60322595 0.6241121 -0.22745176 0.45904863 0.16507839
0.07625867 0.7398778 0.37402642 -0.22672302 0.33206427 -0.54941535 0.5566546 0.550687
-0.39024425 -0.16137429 0.8661313 0.48029995 0.5530885 -0.21855444 -0.013663501 -0.1752861
0.3923095 0.8544063 0.4065519 -0.24742138 -0.39675692 -0.2625381 -0.29847443 -0.1941191
-0.27789107 0.35247913 0.46449888 0.34149665 0.46615347 0.023334928 0.3749546 0.294045
0.38578504 0.5698359 0.308518 -0.3227618 0.5449979 0.25868502 0.67498523 -0.75624895
0.7077093 0.72366166 0.5962527 0.5346691 0.38842508 0.4752985 0.56013477 0.26366174
-0.3785336 0.5206356 -0.28780735 0.7790298 0.5581043 -0.4140969 0.9817648 0.36758086
0.35624972 -0.01858479 -0.31081864 0.75564504 -0.38649756 -0.022123192 0.54480886 -0.0327154
0.31512773 0.46417156 -0.49453744 0.31878147 0.40086368 -0.100051336 0.29045525 -0.35723194
-0.29500467 -0.20458366 -0.3066887 0.44168794 0.4485024 -0.28972816 -0.427506 0.51524013
0.749184 -0.17777328 0.3182508 0.14543475 0.33106926 0.23499058 0.37858063 0.42314422
0.5283159 0.7611354 -0.20241274 0.6314944 -0.29846692 0.6065978 -0.26103917 -0.13670613
-0.04289779 0.9367042 -0.3531501 -0.27800554 -0.36326224 0.7185894 -0.30863 0.43337345
-0.2891654 -0.082556345 0.2367044 -0.094133504 0.46045953 -0.00945988 -0.5311777 -0.48768693
0.37091503 0.22476245 0.118424356 0.21058658 -0.36259574 -0.8451183 0.31176817 0.19381629
0.27549398 0.5103058 -0.21216045 0.40310636 -0.12647736 0.5987083 -0.31575876 0.3184311
-0.093998194 0.7904489 0.34478283 0.3647166 0.5637053 0.27416986 -0.27221617 -0.1873293
0.38340217 -0.29752347 0.25655618 0.45000908 -0.13101976 -0.3351684 -0.6088347 -0.07549514
0.44906253 0.59918725 -0.19421108 -0.55613405 -0.44328 0.24487019 -0.10887782 0.57554144
-0.41265762 -0.29205418 -0.022602879 0.45214117 0.40273774 0.16033946 -0.28533223 0.36607137
-0.19482744 0.3748623 -0.12333973 0.33696836 -0.10612186 0.42745447 0.47599074 0.11405514
0.54172844 -0.35072485 -0.33173934 -0.32129714 -0.3112407 -0.017944919 -0.22756076 0.30232686
0.46545208 0.18858941 0.46497324 -0.30550176 -0.15880553 0.3737576 0.35092348 -0.32355833
0.84562683 0.2847142 0.353503 0.30058068 -0.29012623 0.00021324432 0.29615256 0.038011063
-0.28310665 0.48825943 -0.5443166 0.15397774 -0.10892804 -0.5613271 0.057187416 -0.68415
0.48633665 -0.39068067 0.48644832 -0.21746789 -0.033123333 0.64393955 0.28011 -0.25004914
-0.24685015 0.29957414 -0.25658566 -0.38331756 0.69572294 0.3894896 0.6222524 0.0060944017
0.41647908 0.38059667 -0.49603423 -0.27939436 0.6876923 -0.12241127 -0.55296147 0.5988913
