checkpoint_actor_solved.pth (torch, 551570 bytes, 10 tensors)

fc1.weight f4 [400, 33]
0	0xbe1db973	-0.15402775
1	0xbc1172bb	-0.0088774515
2	0xbd100d8c	-0.03516917
3	0x3ea06797	0.31329033
4	0x3dbf8570	0.09351623
5	0x3da1b0e7	0.078950696
6	0xbd165b8b	-0.036708396
7	0xbce6a33e	-0.028154012
8	0x3c850618	0.016238257
9	0x3c786dbb	0.0151628805
10	0xbd000b1a	-0.031260587
11	0x3d139c4b	0.036037724
12	0x3dc8edfe	0.098110184
13	0x3ddfab93	0.10921397
14	0xbeb5ccd7	-0.35507843
15	0xbddb5635	-0.10709802
16	0xbd827d86	-0.06371598
17	0x3da2a20e	0.07941066
18	0x3e89beaf	0.26903293
19	0x3e24e768	0.161039
20	0x3db84bef	0.08998858
21	0x3a512fc6	0.0007979836
22	0x3e11efed	0.1425168
23	0xbc0d284b	-0.008615564
24	0xbd96ce8a	-0.07363613
25	0xbde20181	-0.11035443
26	0xbd8717c4	-0.0659633
27	0x3cdb243a	0.026750673
28	0xbcedb065	-0.029014776
29	0x3cb7500a	0.022377033
30	0x3ca115aa	0.01966365
31	0x3bcc92f3	0.0062431036
32	0x3da913a6	0.08255701
33	0x3e88da14	0.2672888
34	0xbe0a30d3	-0.13495187
35	0x3dfa1c66	0.12212448
36	0x3e44330d	0.191601
37	0x3d43a4e8	0.04776469
38	0xbd987b4f	-0.07445394
39	0xbddb7333	-0.10715332
40	0x3d8d8d06	0.06911664
41	0x3dfba64e	0.122875795
42	0xbbc7a61e	-0.0060928008
43	0x3c12e221	0.008965046
44	0xbd92eeaf	-0.071744315
45	0xbc4f5393	-0.012654203
46	0xbe659b60	-0.22422552
47	0x3d8ff3aa	0.07028897
48	0xbd828249	-0.06372506
49	0xbda93610	-0.08262265
50	0xbe17a9a1	-0.14810802
51	0xbdae1dee	-0.085018024
52	0x3d0d7e53	0.0345443
53	0xbc094e1b	-0.008380438
54	0x3d674abc	0.056467757
55	0x3dc77bf3	0.09740438
56	0xbdadd700	-0.084882736
57	0x3aae7779	0.0013310752
58	0xbd21eb4e	-0.039531045
59	0x3c44c1a8	0.012009062
60	0xbd23162e	-0.039816074
61	0xbcd233df	-0.0256595
62	0xbc20e93a	-0.009821231
63	0x3c26e984	0.01018751
64	0x3ccacbb7	0.024755342
65	0x3ef9884d	0.48736802
66	0x3df8d37c	0.121497124
67	0xbc827dec	-0.015929185
68	0xbd9ed409	-0.07755286
69	0xbe14fd22	-0.14549688
70	0x3ee3a426	0.44461173
71	0x3df9e7da	0.12202425
72	0xbba60f05	-0.0050677084
73	0x3d2203e8	0.039554507
74	0x3ec85f72	0.3913532
75	0xbd90da64	-0.07072905
76	0x3deb12d2	0.11478199
77	0xbc2ae1bd	-0.010429797
78	0xbc38bb95	-0.011275192
79	0xbe21c0ad	-0.15796156
80	0x3c3d7a75	0.011564841
81	0x3d2772d0	0.040880978
82	0xbe72c31f	-0.23707245
83	0xbeb997c7	-0.3624861
84	0xbcddec3a	-0.02709018
85	0xbe2bb117	-0.16766773
86	0xbd96d238	-0.07364315
87	0x3e04aa9b	0.12955706
88	0xbd845a2d	-0.06462512
89	0x3e3f8cf8	0.18706119
90	0x3cabc90c	0.02096989
91	0xbd418638	-0.04724714
92	0x3df49d16	0.11944024
93	0xbb33bd47	-0.002742605
94	0x3d369455	0.044575054
95	0x3cecc58a	0.028902788
96	0xbd3ecb51	-0.046580616
97	0xbd4bb5e0	-0.049733996
98	0xbe927305	-0.28603378
99	0xbe1dd03c	-0.15411466
100	0x3da4ff7c	0.08056542
101	0xbe0cf969	-0.13767017
102	0xbec9f1e7	-0.3944237
103	0x3c055652	0.008138256
104	0xbe976f77	-0.29577228
105	0x3eaac269	0.33351448
106	0xbdc0099d	-0.093768336
107	0x3ccf7446	0.025323998
108	0xbd0b8bd1	-0.034068886
109	0x3c99185a	0.01868837
110	0x3d96e898	0.073685825
111	0x3dc8b7f8	0.09800714
112	0x3dbf2508	0.09333235
113	0x3db8643a	0.09003492
114	0x3e04b161	0.1295829
115	0x3cfc5c36	0.030805688
116	0xbe85dbff	-0.26144406
117	0xbda55448	-0.08072716
118	0x3ded9185	0.11600021
119	0xbc973636	-0.018458467
120	0x3caa3f37	0.020782096
121	0x3d31f226	0.04344382
122	0x3e513f5c	0.20434326
123	0xbac7460d	-0.0015203372
124	0x3df62100	0.12018013
125	0xbaeb0400	-0.0017930269
126	0x3d2cf752	0.04222805
127	0x3c8b94a7	0.017038656
128	0xbd0f2c53	-0.03495438
129	0xbd110003	-0.0354004
130	0x3c9d4d6a	0.019201953
131	0xbc3d2abb	-0.011545832
132	0xbceb2d0f	-0.028708009
133	0x3d293775	0.041312654
134	0x3db04fec	0.08608994
135	0xbe1840cf	-0.14868473
136	0x3e6d3025	0.23162897
137	0x3e998b51	0.29989102
138	0x3ded40ba	0.11584611
139	0xbe14c912	-0.14529827
140	0x3e37ca1e	0.17948195
141	0xbeb2c020	-0.34912205
142	0xbddcac05	-0.107749976
143	0xbc7294ff	-0.014806031
144	0x3c977f33	0.01849327
145	0x3cad5558	0.02115886
146	0xbd43f142	-0.047837503
147	0x3e5135f4	0.20430738
148	0xbe0710c5	-0.13189991
149	0xbe632589	-0.22182287
150	0x3ab723d8	0.0013972474
151	0x3cf79ed8	0.03022711
152	0x3ddd7000	0.10812378
153	0x3d642d1e	0.05570709
154	0x3e08ca70	0.13358474
155	0x3d464106	0.048401855
156	0x3ddce35e	0.10785554
157	0x3e145fea	0.14489713
158	0x3d7a41e7	0.061098006
159	0x3ad082c0	0.0015908107
160	0x3c10d4e0	0.008839816
161	0x3d3a774f	0.045523938
162	0x3d022d78	0.031781644
163	0x3b66b39a	0.0035202266
164	0x3eb9b665	0.36271968
165	0xbcec254b	-0.028826376
166	0xbef2e5f0	-0.47441053
167	0xbe5a637c	-0.21327013
168	0xbe190070	-0.14941573
169	0xbdf30d22	-0.11867739
170	0xbcbc233f	-0.022966025
171	0xbdbea4ef	-0.09308802
172	0x3d5ad5c9	0.053426538
173	0x3de1a6f2	0.110181704
174	0xbdc43ac6	-0.09581523
175	0x3d664bb6	0.056224547
176	0xbda870ea	-0.08224662
177	0x3c451424	0.012028728
178	0x3d820054	0.06347719
179	0x3e6ce3d1	0.2313378
180	0x3dc5b7c8	0.09654194
181	0xbd912c4f	-0.07088529
182	0xbd81b7e9	-0.06333906
183	0xbcce919b	-0.025215914
184	0x3ce62741	0.02809489
185	0xbdc337f4	-0.095321566
186	0x3da8d7e9	0.082443066
187	0xbdadd7d9	-0.08488435
188	0xbb50b35d	-0.003184519
189	0x3c211c48	0.009833403
190	0xbc53c09d	-0.012924341
191	0xbdc6936e	-0.09696089
192	0xbce3f3c3	-0.027826196
193	0x3cf4ac12	0.029867206
194	0x3d4b49d5	0.04963096
195	0x3d272ec2	0.040816076
196	0xbd105b63	-0.035243403
197	0xbdf4109c	-0.119172305
198	0x3c235f0e	0.009971393
199	0xbd67f568	-0.056630522
200	0xbdfd1d2f	-0.12359082
201	0x3e7a12e7	0.24421273
202	0x3cb3187d	0.021862263
203	0xbd3ccaf2	-0.04609198
204	0x3a3f2435	0.0007291467
205	0x3e5beeb4	0.21477777
206	0x3df36ca3	0.11885955
207	0x3e1222b8	0.14271057
208	0xbc8a8639	-0.016909705
209	0x3d236227	0.039888527
210	0x3d291c05	0.041286487
211	0x3df33f56	0.11877315
212	0x3d27144e	0.04079085
213	0x3e79d037	0.24395834
214	0xbe79f48e	-0.24409696
215	0x3d1e58f5	0.038659055
216	0x3eb4ddaf	0.3532538
217	0xbe819b3b	-0.25313744
218	0xbd7a078e	-0.06104236
219	0xbcd32e08	-0.025778785
220	0xbca46d26	-0.020071577
221	0xbb9ca1d9	-0.004780036
222	0xbded1d3c	-0.11577842
223	0x3d5d1b95	0.053981382
224	0xbd59eebd	-0.053206194
225	0x3d2ae376	0.04172083
226	0x3c8bd46a	0.01706906
227	0x3bc433cd	0.0059876204
228	0x3cd56aa5	0.026051829
229	0xbd2040ba	-0.039124228
230	0x3e043e66	0.12914428
231	0x3d096bde	0.033550136
232	0x3e21b547	0.15791808
233	0x3deb9724	0.11503437
234	0xbe8d5a85	-0.27608123
235	0xbe4ffe48	-0.20311844
236	0x3e8c854e	0.27445453
237	0xbd7af0c8	-0.061264783
238	0xbe082b46	-0.13297758
239	0xbc4c471e	-0.0124681275
240	0x3e820f1e	0.25402158
241	0xbdf92f32	-0.12167205
242	0x3df1b109	0.11801345
243	0x3dc90e81	0.098172195
244	0xbd1988fe	-0.03748416
245	0xbe50e194	-0.20398551
246	0x3e016479	0.12635984
247	0x3d824d4a	0.06362398
248	0x3d1e45ba	0.038640715
249	0x3e38b836	0.18039021
250	0x3cd6b174	0.026207663
251	0xbc23b057	-0.009990773
252	0xbd703cf9	-0.058651898
253	0x3d410c98	0.04713115
254	0xbe007b04	-0.12546927
255	0xbd9f475c	-0.077772826

fc1.bias f4 [400]
0	0x3cc8e5c7	0.024523629
1	0x3e2a2a5c	0.16617721
2	0x3d7b732c	0.061389133
3	0x3dc9234d	0.09821186
4	0x3d919d88	0.07110125
5	0xbd5eadb0	-0.05436486
6	0x3d2a5cf6	0.04159256
7	0xbdf61284	-0.1201525
8	0x3e254a6e	0.16141674
9	0x3c32acc6	0.01090545
10	0x3e0a99b2	0.13535193
11	0xbdf8c08f	-0.12146103
12	0xbe23cd57	-0.159963
13	0x3ca7b423	0.020471638
14	0xbcb3e268	-0.021958545
15	0xbd8fb801	-0.07017518
16	0x3dbafda2	0.09130408
17	0xbde7a7b5	-0.113112845
18	0x3e1c14d1	0.15242316
19	0xbe2e21ca	-0.17005077
20	0x3d12cf2f	0.035842117
21	0xbdd04974	-0.1017026
22	0x3d19d811	0.037559573
23	0x3e302c94	0.17204505
24	0xbca9eccb	-0.020742794
25	0x3d261491	0.040546957
26	0xbd8c5464	-0.06852034
27	0xbdb5c75b	-0.08875915
28	0xbe183e77	-0.14867578
29	0x3dcd9cc2	0.10039665
30	0xbacadcaa	-0.001547714
31	0x3d76d037	0.060257163
32	0xbe08c985	-0.13358124
33	0xbe14b9c4	-0.14523989
34	0xbe209409	-0.15681471
35	0xbdcda93e	-0.10042046
36	0xbcbbc11a	-0.022919226
37	0xbcd6b0f2	-0.026207421
38	0x3d9cbf1f	0.07653641
39	0xbdaad668	-0.08341676
40	0x3e2dbad6	0.16965804
41	0xbda24c27	-0.07924681
42	0xbe273624	-0.16329247
43	0x3e0701fa	0.13184348
44	0xbde57e0b	-0.112056814
45	0x3c89126c	0.016732417
46	0xbc8c7310	-0.01714471
47	0xbd16e834	-0.03684254
48	0x39ff20b2	0.0004866175
49	0xbe2f57ee	-0.17123386
50	0x3e204941	0.15652944
51	0xbde769ec	-0.112995
52	0x3dd94d26	0.10610418
53	0xbdd1ba4b	-0.10240611
54	0xbd308aa2	-0.04310096
55	0xbb8969b7	-0.0041935104
56	0xbd8d08d8	-0.068864524
57	0xbd9c4320	-0.076299906
58	0xbe15f91d	-0.1464581
59	0xbdf4d729	-0.11955101
60	0xbc0f708a	-0.008754859
61	0xbd5192a4	-0.051165238
62	0xbcc78e0f	-0.024359731
63	0x3d3bce19	0.045850847
64	0xbcb6519b	-0.02225571
65	0xbe28c8a4	-0.16482788
66	0xbd83057e	-0.06397532
67	0x3d5a1fcd	0.053252984
68	0x3d809973	0.06279268
69	0x3dabb5a6	0.08384256
70	0x3c20de49	0.009818622
71	0x3df3892b	0.11891397
72	0xbdf398c4	-0.11894372
73	0xbe1577be	-0.1459646
74	0xbd3d485e	-0.046211593
75	0x3ab638b1	0.0013902393
76	0x3e01a02d	0.12658758
77	0xbdcd4af2	-0.1002406
78	0xbdfa1da6	-0.12212686
79	0xbba18126	-0.004928726
80	0x3d3701f0	0.044679582
81	0xbe228dba	-0.15874377
82	0xbd8fa3c8	-0.07013661
83	0xbe0b8111	-0.13623454
84	0x3d25d638	0.040487498
85	0x3c857998	0.016293332
86	0xbe1e2027	-0.15441953
87	0xbdecc0a8	-0.11560184
88	0x3c00ca49	0.007860729
89	0xbd3d27c0	-0.046180487
90	0xbe09d563	-0.13460307
91	0xbd59615b	-0.05307136
92	0xbe234b1d	-0.15946622
93	0xbca23bd8	-0.019803926
94	0xbcaab3a8	-0.02083762
95	0x3c15c735	0.009141733
96	0x3c750263	0.014954182
97	0xbcf85706	-0.030314934
98	0x3e0e8818	0.13919103
99	0xbd7c042a	-0.06152741
100	0x3da18737	0.07887118
101	0x3d878faa	0.066191986
102	0xbcaef6dc	-0.021357946
103	0xbe029be4	-0.1275478
104	0xbe160d13	-0.14653425
105	0x3d47c56f	0.04877227
106	0x3d59edd2	0.05320532
107	0x3dd92a2e	0.10603748
108	0xbd9d185e	-0.07670663
109	0x3e101a25	0.14072473
110	0x3e3245ea	0.17409483
111	0xbce3178a	-0.027721185
112	0xbd8add74	-0.0678052
113	0xbd603593	-0.054738592
114	0xbe1b3326	-0.1515623
115	0x3dcd6254	0.1002852
116	0x3c9356dd	0.017985756
117	0x3da418d9	0.08012552
118	0x3de472a2	0.11154677
119	0xbd979920	-0.07402253
120	0x3b015256	0.0019732914
121	0x3e103163	0.1408134
122	0xbe09b33e	-0.13447282
123	0x3e1c6c83	0.15275769
124	0x3db935d8	0.09043473
125	0xbd5f387c	-0.054497227
126	0xbe1187f1	-0.14212014
127	0x3dbdd3bd	0.092689015
128	0x3daa35e5	0.08311061
129	0xbda05658	-0.07828969
130	0x3daa0f9b	0.08303758
131	0x3d5345a2	0.05158008
132	0x3e2f979b	0.17147677
133	0x3db63f1e	0.088987574
134	0x3cdbd762	0.026836101
135	0xbe3082dd	-0.1723742
136	0x3e11ba88	0.14231312
137	0x3e18bfaa	0.14916864
138	0xbd4564ed	-0.048191953
139	0xbc64be12	-0.013961332
140	0xbbd288de	-0.0064250072
141	0xbc2de663	-0.0106140105
142	0x3dc1ba5f	0.094593756
143	0x3cc240c3	0.023712521
144	0xbe1b6d60	-0.15178442
145	0x3d658df2	0.056043573
146	0xbdda5cbd	-0.1066222
147	0x3d4afd50	0.049557984
148	0x3d9b5bae	0.07585846
149	0xbdaa13e4	-0.08304575
150	0x3df1cb21	0.11806322
151	0x3b8f7413	0.004377851
152	0xbdb225af	-0.08698594
153	0x3e18fcaf	0.14940141
154	0x3de49252	0.11160721
155	0x3e0258b2	0.12729147
156	0xbdf4f7ce	-0.119613275
157	0xbe07bef2	-0.13256434
158	0xbe1cbc4f	-0.15306209
159	0x3de6b11f	0.11264252
160	0x3dd0779c	0.10179064
161	0xbdd8dc43	-0.105888866
162	0x3d8b8fb0	0.068145156
163	0x3d124e1b	0.03571902
164	0xbd97db75	-0.07414905
165	0x3bc4dd7b	0.006007848
166	0xbdd6ad57	-0.10482281
167	0xbd5226ce	-0.05130654
168	0x3d8d89ff	0.06911086
169	0x3cc8bbe0	0.024503648
170	0xbe04e42f	-0.1297767
171	0x3d345192	0.044023104
172	0xbd0b88dd	-0.03406607
173	0xbe03121c	-0.12799877
174	0xbe24ca35	-0.16092761
175	0x3bfc6201	0.0077021127
176	0xbe030c35	-0.12797625
177	0xbdd9fd84	-0.106440574
178	0x3d2c2cb6	0.042034827
179	0x3c2b3a7f	0.010450958
180	0xbda0fcca	-0.07860716
181	0x3cdbc573	0.02682755
182	0x3db4aac8	0.088216364
183	0xbd88f028	-0.06686431
184	0xbd7e0390	-0.062015116
185	0x3cfd3171	0.030907365
186	0x3d2ed2dc	0.04268156
187	0x3d76db2a	0.060267605
188	0x3df2d4a6	0.11856966
189	0xbc41e99f	-0.011835485
190	0x3d6c1061	0.057632808
191	0xbdcd5a04	-0.10026935
192	0xbcb73cce	-0.022367861
193	0x3e047a92	0.12937382
194	0xbe2c59e4	-0.16831166
195	0xbdeb2241	-0.11481143
196	0xbe1a0390	-0.15040421
197	0x3e1467c3	0.14492707
198	0xbc9fa3f3	-0.019487357
199	0x3e232700	0.15932846
200	0xbdc027ab	-0.09382566
201	0xbd430af7	-0.04761788
202	0x3de56f3c	0.11202857
203	0xbe31cd42	-0.17363456
204	0xbe2dbf37	-0.16967474
205	0xbdeea3f4	-0.11652365
206	0x3b3ef267	0.0029136182
207	0xbe241a7e	-0.16025731
208	0x3d043e9a	0.032286264
209	0x3e166b8a	0.1468946
210	0xbd10aaf4	-0.035319284
211	0xbcfbb65b	-0.030726602
212	0xbe1ca4e0	-0.1529727
213	0xbd169b9d	-0.0367695
214	0x3c6b96fc	0.014379259
215	0x3d1483ec	0.036258623
216	0xbd6ae60d	-0.0573483
217	0xbdda2005	-0.106506385
218	0xbdbb5530	-0.091471076
219	0x3df473fd	0.119361855
220	0xbdc1d226	-0.09463911
221	0x3c5cb5bf	0.013471066
222	0xbcfa3610	-0.030543357
223	0xbd8ec655	-0.069714226
224	0xbbee39e6	-0.0072700856
225	0x3e071b84	0.1319409
226	0x3e06dd8a	0.13170448
227	0xbd14ac82	-0.03629733
228	0xbd1101ac	-0.035401985
229	0xbdc77635	-0.09739343
230	0xbda51741	-0.08061076
231	0xbcef0849	-0.029178755
232	0x3e042c64	0.12907559
233	0x3cca83f0	0.024721116
234	0xbe189c01	-0.14903261
235	0xbd3803f2	-0.044925638
236	0xbe197feb	-0.14990203
237	0x3e25807e	0.16162297
238	0x3c8217d5	0.015880505
239	0xbd33b25e	-0.043871276
240	0x3d8f0033	0.0698246
241	0xbe270f98	-0.16314542
242	0xbd6b3f1e	-0.05743324
243	0x3c86ec99	0.01647024
244	0x3e00a6f2	0.12563685
245	0x3e115b52	0.14194992
246	0xbbb9b6c9	-0.0056675416
247	0xbe32c6c4	-0.17458636
248	0x3d02fb9a	0.031978227
249	0xbdc91f8e	-0.09820472
250	0x3e20dbec	0.15708894
251	0xbd3fbb89	-0.046809707
252	0xbd4211e2	-0.047380336
253	0xbcce6580	-0.025194883
254	0x3e25487d	0.16140933
255	0x3d9c7c0a	0.07640846

bn1.weight f4 [400]
0	0x3f81dabc	1.0144877
1	0x3faf436d	1.3692452
2	0x3f81d865	1.0144163
3	0x3f8dfda2	1.1093028
4	0x3f946268	1.1592531
5	0x3fb83c2a	1.4393361
6	0x3f800009	1.0000011
7	0x3f915ae5	1.1355864
8	0x3fcb6206	1.5889289
9	0x3fb4406a	1.4082158
10	0x3f8fee9d	1.1244694
11	0x3fbdd875	1.4831682
12	0x3f9ef789	1.2419292
13	0x3f8cdc7a	1.1004784
14	0x3fd9ef4e	1.7026155
15	0x3f887531	1.0660764
16	0x3f85f4a3	1.0465282
17	0x3f978ba0	1.1839485
18	0x3f8d3db5	1.1034456
19	0x3f9d10ae	1.2270715
20	0x3f85560f	1.0416888
21	0x3fa0f8a6	1.2575881
22	0x3f88a771	1.0676099
23	0x3fafcc26	1.3734176
24	0x3f96d3e8	1.1783419
25	0x3f77d67c	0.9681165
26	0x3f9152bc	1.1353374
27	0x3fac6409	1.3468028
28	0x3fbbdab6	1.467612
29	0x3f89a6a1	1.0753976
30	0x3f95ed87	1.1713113
31	0x3fbd7ca0	1.4803658
32	0x3fc4998a	1.5359356
33	0x3f9da4de	1.2315938
34	0x3fdc3eba	1.7206643
35	0x3fa1733f	1.2613295
36	0x3f95bfbf	1.1699141
37	0x3f80edf7	1.0072621
38	0x3f856e4f	1.0424289
39	0x3fbd39b7	1.4783238
40	0x3f9f327e	1.2437284
41	0x3fa50bdd	1.2894245
42	0x3f998399	1.1993285
43	0x3fa15e46	1.2606895
44	0x3f95eda9	1.1713153
45	0x3fbdf1d3	1.4839424
46	0x3f98697d	1.1907192
47	0x3fb27cd3	1.3944343
48	0x3f8b8387	1.0899514
49	0x3f8c0f2e	1.0942132
50	0x3f9f64c1	1.2452623
51	0x3f95c9d5	1.1702219
52	0x3f896a78	1.0735617
53	0x3f860acf	1.0472049
54	0x3f6a9d2f	0.91646093
55	0x3f97e7ec	1.1867652
56	0x3f8db5d7	1.1071118
57	0x3f9ea457	1.2393903
58	0x3f959df5	1.168883
59	0x3f96104a	1.1723721
60	0x3fa23fe6	1.267575
61	0x3f986641	1.1906205
62	0x3f980505	1.1876532
63	0x3fb4d2e5	1.412686
64	0x3f6c020d	0.9219063
65	0x3f8ea32b	1.1143545
66	0x3fae39f0	1.3611431
67	0x3f926562	1.143719
68	0x3f863864	1.0485959
69	0x3f867281	1.0503694
70	0x3f98ff74	1.1952958
71	0x3f6a84a6	0.91608655
72	0x3f8762dc	1.0577044
73	0x3fa2f462	1.273083
74	0x3f9e97cc	1.2390075
75	0x3f98497e	1.1897428
76	0x3f888ef5	1.0668627
77	0x3f7f83ee	0.99810684
78	0x3f9dcad4	1.2327523
79	0x3f8b7587	1.0895241
80	0x3fb2c17f	1.39653
81	0x3f6d9dae	0.92818725
82	0x3f9a513c	1.2056041
83	0x3f9ae2b0	1.210043
84	0x3f906d77	1.1283406
85	0x3f915509	1.1354076
86	0x3f953d1a	1.1659272
87	0x3f8e874f	1.1135043
88	0x3faff9bd	1.3748089
89	0x3f93a41b	1.1534456
90	0x3f97eed7	1.1869763
91	0x3f7b69a1	0.9820805
92	0x3fa53256	1.2905986
93	0x3f874d27	1.057042
94	0x3fb97c4e	1.449106
95	0x3f9f1199	1.2427245
96	0x3f83e854	1.0305276
97	0x3fa39e37	1.2782658
98	0x3fc958d3	1.5730232
99	0x3fda94aa	1.7076619
100	0x3f84ddaf	1.0380152
101	0x3fa8544e	1.3150728
102	0x3f823316	1.017184
103	0x3f94eecf	1.1635379
104	0x3fc88941	1.5666887
105	0x3fb578af	1.4177455
106	0x3f919908	1.1374826
107	0x3f6c8984	0.9239733
108	0x3f9a44bf	1.205223
109	0x3f84fbe7	1.0389374
110	0x3f942b2e	1.1575677
111	0x3f97ec09	1.1868907
112	0x3f9d5f73	1.2294754
113	0x3f88a559	1.067546
114	0x3f8e60c9	1.1123286
115	0x3f7ab4b3	0.97931975
116	0x3fd12043	1.633797
117	0x3f69df45	0.9135631
118	0x3f6b543d	0.9192541
119	0x3f91734c	1.1363311
120	0x3f6766b9	0.9039112
121	0x3f8d8fe7	1.105954
122	0x3f8f528b	1.1197065
123	0x3fa6cb2b	1.3030752
124	0x3fbb7292	1.4644339
125	0x3f8c5f73	1.0966629
126	0x3f89e7c4	1.0773854
127	0x3f82ab44	1.0208516
128	0x3fa76229	1.3076831
129	0x3f7c2110	0.9848795
130	0x3fb3b2d3	1.4038948
131	0x3f9bb0a3	1.216328
132	0x3fb3fc32	1.4061339
133	0x3fb64611	1.4240133
134	0x3f938986	1.1526344
135	0x3f91b0a4	1.1382031
136	0x3fced8e7	1.6159943
137	0x3f8477b8	1.0349035
138	0x3f9fa105	1.2471014
139	0x3f828922	1.01981
140	0x3fb44d10	1.4086018
141	0x3f8d77aa	1.1052144
142	0x3fc0a271	1.5049573
143	0x3fb23644	1.392281
144	0x3fcb85ba	1.5900185
145	0x3f96c9c1	1.178032
146	0x3fc4458f	1.5333728
147	0x3f870aa2	1.055012
148	0x3f9ae9f9	1.2102653
149	0x3f8bdba6	1.0926406
150	0x3fb03518	1.3766203
151	0x3f59a275	0.85013515
152	0x3f8fb418	1.1226835
153	0x3f80c939	1.0061408
154	0x3f94c259	1.162181
155	0x3faa3723	1.3298076
156	0x3f87b1f8	1.0601187
157	0x3fa3d9ec	1.280088
158	0x3fa1e126	1.2646835
159	0x3f788081	0.9707108
160	0x3fb40548	1.4064112
161	0x3f88b99c	1.0681643
162	0x3f863375	1.0484453
163	0x3fa934f8	1.321929
164	0x3fc37aae	1.5271814
165	0x3f861f76	1.0478351
166	0x3f8bac45	1.0911947
167	0x3fadfa33	1.359198
168	0x3fa9431b	1.3223604
169	0x3f9beb0c	1.2181106
170	0x3fb61594	1.4225335
171	0x3f9451df	1.1587485
172	0x3fb23516	1.392245
173	0x3f99abe0	1.2005577
174	0x3fca5ab9	1.5808936
175	0x3f9336bd	1.150108
176	0x3f841ee8	1.0321932
177	0x3f9e5142	1.2368548
178	0x3f8f0494	1.1173272
179	0x3f9b92b0	1.215414
180	0x3fb35073	1.4008926
181	0x3f926063	1.1435665
182	0x3f830298	1.0235167
183	0x3fad9f03	1.3564152
184	0x3f7af1f4	0.9802544
185	0x3f9b38b9	1.2126685
186	0x3f825821	1.0183145
187	0x3f9fe13d	1.2490612
188	0x3f88fb8b	1.0701765
189	0x3f94ac0e	1.1615007
190	0x3f9c499b	1.2209963
191	0x3f91d593	1.1393303
192	0x3f7c0949	0.9845167
193	0x3f80b18a	1.0054181
194	0x3ff0cd7e	1.8812711
195	0x3fb63105	1.423371
196	0x3f83f969	1.0310489
197	0x3f8ce220	1.1006508
198	0x3faa0e90	1.3285694
199	0x3f99aead	1.2006432
200	0x3f8a06bb	1.0783304
201	0x3fa4680d	1.2844254
202	0x3f65f371	0.8982459
203	0x3fa24bef	1.2679423
204	0x3f9dff5c	1.2343554
205	0x3f81d28d	1.014238
206	0x3f8ea8b9	1.114524
207	0x3f89bd4b	1.0760893
208	0x3f8ed61b	1.115909
209	0x3fa03c43	1.251839
210	0x3fa370ba	1.2768776
211	0x3fa2022e	1.2656915
212	0x3f9c4bc7	1.2210625
213	0x3f7515e5	0.95736533
214	0x3f8d9aaf	1.1062831
215	0x3fc6877f	1.55101
216	0x3fac095c	1.3440356
217	0x3f9e74ab	1.2379354
218	0x3f9e66b8	1.2375097
219	0x3ff5eb61	1.9212457
220	0x3f8ef574	1.1168656
221	0x3f8cae40	1.0990677
222	0x3f98a9b2	1.1926787
223	0x3f9a96b4	1.2077241
224	0x3f979344	1.1841817
225	0x3f901f84	1.1259618
226	0x3f6b99fe	0.9203185
227	0x3f771a1c	0.96524215
228	0x3fc67065	1.550305
229	0x3f9ae3ff	1.2100829
230	0x3f9eeb43	1.2415546
231	0x3fa50af4	1.2893968
232	0x3f861e84	1.0478063
233	0x3f9454c2	1.1588366
234	0x3f959f99	1.168933
235	0x3f8f66ae	1.120321
236	0x3f6f53ec	0.9348743
237	0x3fcc9ef8	1.5986013
238	0x3fa0f737	1.2575444
239	0x3f7b07b4	0.9805863
240	0x3fbdfa2a	1.4841969
241	0x3faa0098	1.3281431
242	0x3f88de0f	1.0692767
243	0x3f9dd25b	1.232982
244	0x3fada814	1.3566918
245	0x3fa26e11	1.268984
246	0x3f989159	1.1919357
247	0x3fbd525d	1.479076
248	0x3f8e4dbb	1.1117471
249	0x3f8a72bc	1.0816264
250	0x3f80972f	1.0046138
251	0x3f973f8e	1.181627
252	0x3fb18644	1.38691
253	0x3fb061e0	1.3779869
254	0x3f69bb35	0.9130128
255	0x3f8963d1	1.0733587

bn1.bias f4 [400]
0	0xbf06b478	-0.52619123
1	0x3e73d8d8	0.23813188
2	0xbef4d8ef	-0.47821757
3	0xbca02f68	-0.019553855
4	0xbed702d1	-0.41994336
5	0x3e066d48	0.13127625
6	0xbe9769b7	-0.29572842
7	0xbf18fd34	-0.5976136
8	0xbd02746c	-0.03184931
9	0xbeae855b	-0.34086117
10	0xbf1e052f	-0.6172666
11	0x3d6a78ca	0.0572441
12	0xbd9bd58a	-0.07609089
13	0xbdcd7e1e	-0.100338206
14	0xbe926e54	-0.285998
15	0xbf4d4477	-0.80182594
16	0xbec0399a	-0.37543947
17	0x3cf9fcea	0.030516107
18	0xbf396ed4	-0.72434735
19	0xbea8fef0	-0.33007002
20	0xbe3c0f20	-0.18365145
21	0xbe68e99e	-0.22745368
22	0xbeb92aa3	-0.36165342
23	0xbe8be93b	-0.27326378
24	0xbe170501	-0.14748003
25	0xbf38a74c	-0.72130275
26	0x3ddb05f5	0.106944956
27	0x3befe96e	0.007321528
28	0xbd93ef3c	-0.07223365
29	0x3dc8bf0f	0.098020665
30	0xbf1d10f3	-0.6135399
31	0xbec5d60e	-0.38639873
32	0xbe4736b8	-0.19454467
33	0xbd029234	-0.03187771
34	0x3d86bda4	0.0657914
35	0xbf1602c3	-0.58597964
36	0xbe9ffaec	-0.31246126
37	0xbe6b78cb	-0.22995298
38	0xbf209500	-0.62727356
39	0x3caa2696	0.020770352
40	0xbf12d4fa	-0.57356226
41	0xbeba1f0b	-0.3635181
42	0xbeed1c6c	-0.46310747
43	0xbf0545ef	-0.52059835
44	0xbda2ce1d	-0.07949469
45	0xbec4dae1	-0.3844824
46	0xbe3ef587	-0.18648349
47	0xbec78bee	-0.38973945
48	0xbdb95e48	-0.09051186
49	0xbccf9fae	-0.025344696
50	0xbe9960ca	-0.29956657
51	0xbef302bf	-0.47463033
52	0xbec94a03	-0.3931428
53	0xbf147b85	-0.58000976
54	0xbeb0c91f	-0.34528443
55	0xbeae893f	-0.34089085
56	0xbdff28f2	-0.124589816
57	0xbeec228d	-0.4612011
58	0xbf0e5dca	-0.5561186
59	0xbf25f64e	-0.64828956
60	0xbe920927	-0.28522608
61	0xbf25790d	-0.64637834
62	0xbf061329	-0.52372986
63	0xbe8d83d8	-0.2763965
64	0xbed0b954	-0.40766394
65	0xbeacf349	-0.33779362
66	0xbed7440f	-0.42044112
67	0xbe0fa532	-0.14027861
68	0x3dd73658	0.10508412
69	0xbe708204	-0.23487097
70	0xbedf7eca	-0.4365142
71	0xbf0a98bb	-0.541393
72	0xbf22333c	-0.6335943
73	0xbeae7318	-0.34072185
74	0xbe2fcbed	-0.17167635
75	0xbef00799	-0.46880797
76	0xbf0ee61c	-0.5581987
77	0xbef2550e	-0.47330517
78	0xbe9ae4a4	-0.30252564
79	0xbec901e4	-0.39259255
80	0xbe8c5591	-0.27409032
81	0xbf18161d	-0.5940874
82	0xbefad09c	-0.4898728
83	0xbf2dc696	-0.67881143
84	0xbf0e573e	-0.5560187
85	0xbecc1acc	-0.39864194
86	0xbed98d60	-0.42490673
87	0xbd88475d	-0.066542365
88	0xbd9ce780	-0.076613426
89	0x3c5027af	0.012704774
90	0xbebe0317	-0.37111732
91	0xbf1516cd	-0.58237916
92	0xbf00f1e8	-0.5036912
93	0xbe4afd96	-0.19823298
94	0xbe841ae6	-0.25801772
95	0xbecbb957	-0.3978984
96	0xbeadf0fa	-0.33972913
97	0x3e28c99e	0.16483161
98	0xbe2ec977	-0.1706904
99	0xbe5758c1	-0.2102995
100	0xbf03b3f6	-0.51446474
101	0xbecb4492	-0.39700752
102	0xbf187e3c	-0.5956762
103	0xbf06b364	-0.5261748
104	0xbe0102db	-0.12598746
105	0xbf1a1404	-0.6018679
106	0xbf52de76	-0.823707
107	0xbeb54a8e	-0.35408443
108	0xbed77f53	-0.42089328
109	0xbe38574d	-0.18002053
110	0xbe68e058	-0.2274183
111	0xbdbdbe5b	-0.09264823
112	0xbf54adcd	-0.830777
113	0xbf329a65	-0.6976684
114	0xbec3e9c6	-0.38264292
115	0xbef22f52	-0.47301728
116	0xbe01833d	-0.1264772
117	0x3e423a58	0.18967569
118	0xbe83b8e2	-0.25726992
119	0xbee9e96b	-0.45685896
120	0xbf4d154f	-0.8011064
121	0xbec4aba9	-0.38412216
122	0x3e48be2f	0.196038
123	0x3de1bf19	0.11022777
124	0x3dacaabc	0.084310025
125	0xbe92d039	-0.28674486
126	0xbf33febe	-0.7031058
127	0xbe87f1cd	-0.26551667
128	0x3e1d07d5	0.15335019
129	0xbeeecb76	-0.46639603
130	0xbe17dd58	-0.1483053
131	0xbe92df63	-0.28686056
132	0x3ea3c895	0.3198897
133	0xbdef0130	-0.116701484
134	0x3be7b754	0.007071415
135	0xbe908d8b	-0.2823299
136	0xbd2a0edd	-0.04151808
137	0xbef8b8dc	-0.48578537
138	0xbf1de317	-0.61674637
139	0xbe30c87d	-0.1726398
140	0x3bb7707c	0.005598126
141	0xbeb587fd	-0.35455313
142	0xbeda7291	-0.42665532
143	0xbebb54c8	-0.3658812
144	0x3ec5fab7	0.38667843
145	0xbe4d2fea	-0.20037809
146	0x3c9772eb	0.018487414
147	0xbeb48058	-0.3525417
148	0xbe8df719	-0.27727583
149	0xbf2a61d4	-0.66555524
150	0xbf183377	-0.5945353
151	0xbe95fba4	-0.2929355
152	0xbed36a5e	-0.4129209
153	0xbe7d8f8e	-0.24761793
154	0x3c6246ee	0.013810856
155	0xbef41209	-0.4767001
156	0xbf04f8a1	-0.5194188
157	0xbe544723	-0.20730262
158	0xbe6cbba1	-0.2311845
159	0xbe615a41	-0.22007085
160	0xbe25526b	-0.16144721
161	0xbf2b345d	-0.66876775
162	0xbf2c73c9	-0.67364174
163	0x3e9ddd04	0.30832684
164	0xbdd85544	-0.10563138
165	0xbf337af6	-0.701095
166	0xbd80be19	-0.06286258
167	0x3dbb5a67	0.09148102
168	0xbf17bb04	-0.5926974
169	0xbdab4b21	-0.08363939
170	0xbe824d61	-0.2544966
171	0xbed92dde	-0.42417806
172	0xbf17fe7e	-0.593727
173	0xbef1f75e	-0.4725904
174	0xbdebf09b	-0.11520501
175	0xbea940ec	-0.33057344
176	0xbe566c30	-0.20939708
177	0xbe1b4d85	-0.1516629
178	0xbec9c124	-0.39405167
179	0xbf21304b	-0.62964314
180	0x3d05825f	0.032595035
181	0xbe962cc2	-0.29331023
182	0xbf13e88e	-0.57776725
183	0xbe8bf83d	-0.27337828
184	0xbec051f4	-0.37562525
185	0xbf7c2384	-0.9849169
186	0xbeba82c7	-0.364279
187	0xbf246674	-0.6421883
188	0xbeea2eb2	-0.4573875
189	0xbef2ee44	-0.47447407
190	0xbe7e2410	-0.24818444
191	0xbeecb005	-0.46228042
192	0xbea5069c	-0.32231605
193	0xbf411cd8	-0.7543464
194	0x3d3390b3	0.043839168
195	0xbde9f4fb	-0.114236794
196	0xbed1cfa9	-0.40978745
197	0xbde27520	-0.11057496
198	0xbe9fe38c	-0.31228292
199	0xbe7280ca	-0.23681942
200	0xbf1134ac	-0.56720996
201	0x3dbfb7dd	0.09361241
202	0xbef2597a	-0.4733389
203	0xbe62b3a7	-0.22138844
204	0xbe39b08a	-0.1813375
205	0xbec32e2e	-0.3812117
206	0xbf10a9de	-0.56509197
207	0xbe23eea7	-0.16009007
208	0xbf099c6e	-0.5375432
209	0xbe85745f	-0.26065347
210	0xbe8144bc	-0.25247753
211	0xbeac7c12	-0.33688408
212	0xbd1e085d	-0.038582195
213	0xbe1c8a7a	-0.152872
214	0xbdf1c30d	-0.11804781
215	0xbef8e2e0	-0.48610592
216	0x3c8ba0db	0.017044475
217	0xbdda580d	-0.106613256
218	0xbefaf0b6	-0.49011773
219	0xbd33aa89	-0.043863807
220	0xbe843027	-0.25817987
221	0xbee86f70	-0.4539752
222	0x3dccae6f	0.09994208
223	0x3d11778b	0.035514396
224	0xbf15fac5	-0.5858577
225	0xbf27e6be	-0.6558646
226	0xbeff2442	-0.4983235
227	0xbf04e5f9	-0.5191341
228	0x3ee6b22e	0.45057815
229	0xbed43ad2	-0.41451126
230	0xbde68f6c	-0.11257824
231	0xbec653a8	-0.387357
232	0xbeb9c60f	-0.3628392
233	0xbdc41d49	-0.09575898
234	0x3df6233a	0.12018438
235	0xbe846513	-0.25858364
236	0xbf1d316a	-0.61403525
237	0xbd709c44	-0.058742777
238	0x3dc4d3ba	0.09610696
239	0xbf0862f9	-0.5327602
240	0xbd8768b1	-0.06611765
241	0xbf0ae630	-0.5425749
242	0xbf07da57	-0.53067535
243	0xbe14ca49	-0.1453029
244	0xbd828f0c	-0.0637494
245	0xbf0aa508	-0.5415807
246	0xbe62b89e	-0.22140738
247	0xbec1406d	-0.37744465
248	0xbf138813	-0.5762951
249	0xbe94ba64	-0.29048455
250	0xbf072b5f	-0.52800554
251	0xbea9c96b	-0.33161482
252	0xbebec3a4	-0.37258637
253	0xbea3a473	-0.31961402
254	0xbedecac5	-0.43514076
255	0xbe9b4027	-0.30322382

bn1.running_mean f4 [400]
0	0x3fb82099	1.4384948
1	0x3f01a11e	0.5063647
2	0xbd100bd6	-0.035167538
3	0xbf520fbe	-0.8205527
4	0xbe9407dd	-0.2891225
5	0x3f04a9b0	0.5182142
6	0x3e08ab49	0.1334659
7	0xbe9e56bf	-0.30925557
8	0x3ea2ba58	0.31782794
9	0x3c43fb73	0.011961806
10	0xbf89ee32	-1.0775816
11	0xbe9ed35f	-0.31020638
12	0xbd05cff7	-0.032669034
13	0x3e4ebdb3	0.20189552
14	0x3ecbadeb	0.39781126
15	0xbda8047c	-0.0820398
16	0x3e7972ee	0.24360248
17	0xbd093943	-0.033501875
18	0xbf972581	-1.180832
19	0xbed1ad1d	-0.40952387
20	0xbdf422c3	-0.11920693
21	0xbef83191	-0.48475316
22	0xbd184d7a	-0.037183262
23	0xbe74c49e	-0.23903129
24	0x3ef7e034	0.4841324
25	0x3e18c35a	0.1491827
26	0x3e7f0cb6	0.24907193
27	0x3ecd9584	0.40153134
28	0xbe52d1c0	-0.20587826
29	0x3d17c61c	0.037054166
30	0xbead59a2	-0.33857447
31	0x3ee6148a	0.44937545
32	0xbe535c21	-0.20640613
33	0x3f53bd25	0.82710487
34	0x3d9d9be1	0.07695747
35	0xbf150a5e	-0.58218944
36	0xbf0c2776	-0.5474771
37	0xbf98427e	-1.1895292
38	0xbe1ab085	-0.151064
39	0xbe0f3d81	-0.13988306
40	0x3d96925c	0.073521346
41	0x3e49ba0e	0.1969988
42	0x3e824afc	0.25447834
43	0x3c4b01f0	0.012390599
44	0x3e36abd1	0.1783898
45	0x3e16d174	0.14728338
46	0xbec0dfc7	-0.3767073
47	0x3e87abd0	0.2649827
48	0xbd322e7f	-0.043501373
49	0xbf20ace1	-0.6276379
50	0x3e926562	0.28592974
51	0x3dcfb558	0.101420105
52	0x3e40de66	0.18834838
53	0xbf05a62f	-0.522067
54	0x3f58c192	0.84670365
55	0xbf1c1ea4	-0.60984254
56	0x3dc9966e	0.09843145
57	0xbc71aaa8	-0.01475016
58	0x3dae4090	0.08508408
59	0xbef6f45b	-0.48233303
60	0x3e3c48a3	0.18387084
61	0x3ed84798	0.42242122
62	0x3dc27431	0.09494818
63	0xbde4d45a	-0.11173315
64	0xbf533bdc	-0.82513213
65	0xbec5b97e	-0.38618082
66	0xbd3ac328	-0.04559627
67	0xbf27c3bf	-0.6553306
68	0x3ed2fc17	0.41207954
69	0x3f3634a4	0.71174073
70	0x3ef7b7b4	0.48382342
71	0xbf03fded	-0.51559335
72	0xbeba39e0	-0.3637228
73	0x3e05f58b	0.13081948
74	0xbda19f97	-0.078917675
75	0x3db9b3dd	0.09067509
76	0xbeceefea	-0.40417415
77	0xbc9f887b	-0.019474259
78	0x3e83fbaf	0.25777957
79	0xbec640e1	-0.38721374
80	0x3f1ac846	0.60461843
81	0xbf99f8f0	-1.2029095
82	0xbf6c2584	-0.92244744
83	0xbe14b02f	-0.14520334
84	0xbe6ea275	-0.2330416
85	0x3b7b625d	0.003835819
86	0xbeb8622c	-0.360124
87	0xbfb5f595	-1.4215571
88	0x3e5fd3e8	0.2185818
89	0x3e944387	0.2895777
90	0xbf3b1edc	-0.7309396
91	0xbf8a564c	-1.0807586
92	0xbda8cb1f	-0.08241867
93	0xbea3c0c7	-0.31983015
94	0x3de7aa8c	0.11311826
95	0xbe3985d0	-0.18117452
96	0xbfcf84e4	-1.621243
97	0xbe1b9c1c	-0.1519627
98	0x3eb52057	0.35376236
99	0x3ee8a143	0.45435533
100	0x3e8340ff	0.25635526
101	0x3d31deb2	0.04342527
102	0x3cbfcaa7	0.023412062
103	0xbe571f4d	-0.21008034
104	0xbe8036c8	-0.25041795
105	0xbe2d717d	-0.16937824
106	0xbeba4573	-0.3638111
107	0xbea402df	-0.3203344
108	0xbf50454d	-0.81355745
109	0xbf59371b	-0.8484971
110	0x3ea41ac5	0.32051674
111	0x3ecb9c56	0.39767712
112	0x3f1d963a	0.6155735
113	0xbea1017a	-0.3144644
114	0xbf4403d7	-0.7656836
115	0x3e4d0aee	0.200237
116	0x3f1647b1	0.5870314
117	0x3f84ed3c	1.0384898
118	0x3e923cb9	0.28561953
119	0xbe996f60	-0.29967785
120	0xbf66760c	-0.90023875
121	0xbedbc083	-0.42920312
122	0xbf9c4c40	-1.221077
123	0xbeb47705	-0.35247055
124	0x3e231e1e	0.15929458
125	0x3e9c043c	0.3047198
126	0xbe7090bf	-0.23492716
127	0x3e0d5dbe	0.13805291
128	0xbd7a9f82	-0.061187275
129	0xbf3c9f87	-0.7368092
130	0x3f2fc8bc	0.6866567
131	0x3ec1e22a	0.37867862
132	0x3f582471	0.84430605
133	0xbd8c6289	-0.068547316
134	0x3eb0b359	0.3451183
135	0xbeb0a2e9	-0.3449929
136	0x3e963900	0.29340363
137	0x3f4cdb2a	0.8002192
138	0x3d6637ca	0.05620555
139	0x3f4104cc	0.75397944
140	0x3c0d35ce	0.008618785
141	0x3eb3fb4c	0.35152662
142	0x3e344a6c	0.17606515
143	0x3d4794db	0.048725944
144	0xbf2a5c5b	-0.66547173
145	0x3f8aa892	1.0832694
146	0xbf098571	-0.5371924
147	0xbeb3e8b4	-0.35138476
148	0xbe28ff2f	-0.16503595
149	0xbe168996	-0.14700922
150	0xbe7c798b	-0.2465574
151	0x3f3d1484	0.7385943
152	0xbf491a17	-0.78555435
153	0xbdd6f7fb	-0.10496517
154	0x3f29e81b	0.6636979
155	0x3ed5c161	0.417491
156	0xbf05d7a6	-0.5228218
157	0xbede1c8a	-0.4338115
158	0xbd596a7c	-0.053080067
159	0xbf0ab8a3	-0.54187983
160	0xbdbb0e4a	-0.09133585
161	0xbf8fe442	-1.1241534
162	0xbf1d8a41	-0.61539084
163	0xbe0b1d21	-0.1358533
164	0xbd469ddf	-0.0484904
165	0xbf051941	-0.5199166
166	0xbf076ce2	-0.52900517
167	0x3ed5de9c	0.417714
168	0x3ea3308f	0.31872985
169	0x3f14802f	0.5800809
170	0xba6b9c2e	-0.0008987811
171	0xbf166925	-0.5875419
172	0x3ce760d9	0.028244423
173	0x3f57aca9	0.84247833
174	0x3e8ddad6	0.2770602
175	0x3e921a4e	0.28535694
176	0xbf3c6722	-0.7359487
177	0x3f16489a	0.5870453
178	0x3f3dddb6	0.7416643
179	0x3d8e594a	0.06950624
180	0xbe48de60	-0.1961608
181	0x3eca42df	0.39504144
182	0xbf386d45	-0.7204173
183	0xbe98bc83	-0.29831323
184	0xbe0370f2	-0.12836054
185	0x3e55d134	0.20880586
186	0x3f60bdf4	0.87789845
187	0x3ef5902c	0.47961557
188	0x3e6c1b96	0.23057398
189	0x3e902677	0.28154346
190	0x3e8e999e	0.27851576
191	0x3ee1e517	0.44120094
192	0x3f1bff38	0.6093631
193	0xbef2a5c2	-0.47392088
194	0xbf0df74e	-0.5545548
195	0xbacc89c2	-0.001560502
196	0x3e150fa3	0.14556746
197	0x3f827e98	1.0194883
198	0x3ee9c928	0.45661283
199	0x3fcc2811	1.5949727
200	0x3f48dacd	0.78458863
201	0x3ec885b4	0.39164507
202	0xbf4b8f31	-0.7951537
203	0x3d8c9497	0.06864279
204	0xbede672d	-0.43438092
205	0xbeb35c06	-0.35031146
206	0x3e8ad3e2	0.2711478
207	0xbd36f360	-0.044665694
208	0xbdd59525	-0.10428838
209	0x3e8ed052	0.2789331
210	0x3e067030	0.13128734
211	0xbedf8bb1	-0.43661264
212	0x3ea56e11	0.32310537
213	0x3e6a9bec	0.22911042
214	0x3cf027f3	0.029315924
215	0x3d23e4ad	0.040013004
216	0x3f022320	0.50834846
217	0x3e8f05cf	0.2793412
218	0xbdfe06bc	-0.12403628
219	0x3e1a9f1a	0.15099755
220	0xbea6694f	-0.3250222
221	0xbee5021f	-0.4472818
222	0x3d83cddc	0.06435749
223	0x3e759b16	0.23984942
224	0xbec01e62	-0.3752318
225	0x3e367fa2	0.17822126
226	0x3c4e8887	0.012605793
227	0xbf0fe982	-0.5621568
228	0x3ee8d6bd	0.45476332
229	0x3e869002	0.26281744
230	0xbeee9dfd	-0.4660491
231	0xbef5d4ff	-0.48014066
232	0x3f3d2505	0.7388461
233	0xbe1c0763	-0.15237193
234	0x3e40ded9	0.1883501
235	0x3f487369	0.783011
236	0xbfde2103	-1.7353824
237	0x3ecf7f09	0.40526608
238	0xbd1bc24d	-0.038027097
239	0xbd7505aa	-0.059819855
240	0x3eef277e	0.46709818
241	0x3f470dc9	0.7775541
242	0x3d8b043f	0.06787919
243	0x3d96fa18	0.0737192
244	0xbdf5964d	-0.11991558
245	0xbf1c49c4	-0.6105006
246	0xbe7d252d	-0.24721213
247	0xbe5873ea	-0.21137968
248	0xbd0443f6	-0.032291375
249	0xbed34f3b	-0.41271386
250	0xbec6bb24	-0.38814652
251	0x3f244460	0.6416683
252	0x3eee8fa1	0.46593955
253	0x3d2b2cef	0.0417909
254	0x3f14e63c	0.5816381
255	0x3e9da1e0	0.30787563

bn1.running_var f4 [400]
0	0x3f21d7f0	0.6322012
1	0x3ee43e3a	0.44578725
2	0x3f35c1c6	0.709988
3	0x3f5c19f3	0.85977095
4	0x400c74cb	2.1946285
5	0x3e67a256	0.2262052
6	0x3f9a3efb	1.205047
7	0x3f3f94f6	0.7483667
8	0x3f059039	0.5217319
9	0x3e3db1d3	0.18524866
10	0x3f83ca88	1.0296183
11	0x3e94ba6c	0.2904848
12	0x3e9312e4	0.2872535
13	0x3ed61c1f	0.4181833
14	0x3eda2c9c	0.4261216
15	0x3fdd5624	1.7291913
16	0x4005b766	2.0893188
17	0x4012d80c	2.2944365
18	0x3ffd9cfa	1.981353
19	0x3f4ff4b5	0.8123277
20	0x3f4fc2e1	0.81156737
21	0x3f1ab1ff	0.6042785
22	0x3f104eeb	0.5637042
23	0x3fa01ef0	1.2509441
24	0x3f7a3673	0.9773933
25	0x3fc263b6	1.5186679
26	0x406df010	3.7177773
27	0x3fd82e55	1.688914
28	0x3ed1ecda	0.41001016
29	0x402a6405	2.6623547
30	0x3f96a501	1.1769105
31	0x3e956586	0.2917902
32	0x3efeee5b	0.49791226
33	0x3fa8397e	1.3142545
34	0x3e004801	0.12527467
35	0x3ef490d5	0.47766748
36	0x3fac0579	1.343917
37	0x3f672150	0.90285206
38	0x3fb90449	1.4454433
39	0x3f0cd044	0.5500529
40	0x3fa5ce52	1.2953589
41	0x3ecd0cf0	0.40048933
42	0x3f29390d	0.6610268
43	0x3e854b3f	0.2603397
44	0x3fa11cc0	1.2586899
45	0x3ec0bd29	0.37644318
46	0x3f2d95a2	0.67806447
47	0x3e8697fb	0.26287827
48	0x3f6dbc79	0.9286571
49	0x3f71d5a9	0.94466645
50	0x3ec9ab21	0.39388373
51	0x3f3db079	0.740974
52	0x3eca63cb	0.3952926
53	0x3f5f7eed	0.8730305
54	0x3fc1c432	1.5137999
55	0x3f8a3c04	1.0799565
56	0x3fe33ecd	1.775354
57	0x3ea3843e	0.3193683
58	0x3fb4298c	1.4075179
59	0x3fa325f1	1.2745954
60	0x3e2034b2	0.15645102
61	0x3f2d0f35	0.6760133
62	0x3eba94ce	0.36441654
63	0x3e460507	0.19337855
64	0x3f0c95e5	0.5491622
65	0x40ba8884	5.8291645
66	0x3f17e6fc	0.5933683
67	0x3eb78c06	0.35849017
68	0x3ebaf8a3	0.3651782
69	0x3f107114	0.56422544
70	0x3f22c5f9	0.6358333
71	0x3fb7c491	1.4356862
72	0x3fa9cb23	1.3265117
73	0x3f322c11	0.6959849
74	0x3f97d334	1.1861329
75	0x3f0f11a9	0.5588632
76	0x3f8ae152	1.0850012
77	0x3f9b9d8e	1.2157457
78	0x3f088d24	0.53340364
79	0x3ed05ff4	0.40698206
80	0x3fa1788a	1.2614911
81	0x3f300d37	0.68770164
82	0x3e99750d	0.29972115
83	0x3f29adbe	0.66280735
84	0x3fb98e45	1.4496542
85	0x3fa3ec99	1.2806579
86	0x3e9098b7	0.28241512
87	0x3fa17ceb	1.2616247
88	0x3f82cde3	1.0219082
89	0x3f8576a1	1.0426828
90	0x3f24015f	0.6406459
91	0x3fe9f122	1.8276713
92	0x3ec3c2dd	0.38234606
93	0x4022544f	2.5363958
94	0x3f6b1bca	0.9183928
95	0x3eb63f7d	0.35595313
96	0x3ee04b1a	0.43807298
97	0x3eb816ec	0.35954988
98	0x3f08f53d	0.53499204
99	0x3e48ab3a	0.19596568
100	0x3fc1049a	1.5079529
101	0x3ed6646c	0.4187349
102	0x406366b8	3.5531445
103	0x3ed548de	0.41657156
104	0x3e9d8907	0.30768606
105	0x3ef94d60	0.48691845
106	0x3f2236f9	0.6336513
107	0x3f8feb9a	1.1243775
108	0x3f11ce1e	0.56955135
109	0x401a6c43	2.4128578
110	0x3fa434cc	1.2828612
111	0x3f759cc1	0.9594231
112	0x3fd87a81	1.6912385
113	0x3f0eddad	0.55807
114	0x3eccb876	0.39984483
115	0x4019aa88	2.4010334
116	0x3ef6db45	0.48214164
117	0x3f9d3de9	1.2284518
118	0x3e925c2f	0.28585956
119	0x3f1af42c	0.60528827
120	0x3f4fc51c	0.8116014
121	0x3f940871	1.1565076
122	0x3f95faae	1.1717126
123	0x3f95b5ed	1.1696144
124	0x3f132076	0.57471406
125	0x3f5bd75f	0.85875505
126	0x3f8ef54e	1.1168611
127	0x3f89e1c0	1.0772018
128	0x3fc77b74	1.558455
129	0x3f666694	0.9000027
130	0x3fbd33a3	1.4781383
131	0x3eb62f6a	0.3558305
132	0x3ece786f	0.4032626
133	0x3f50a7de	0.81506145
134	0x3f183bc8	0.5946622
135	0x3fc36021	1.5263711
136	0x3f2728d8	0.652967
137	0x3f3ecf50	0.74535084
138	0x3e84a4da	0.25907022
139	0x4022ccb3	2.5437438
140	0x3f1d7f47	0.61522335
141	0x40326d4d	2.7879212
142	0x3f0b828a	0.5449606
143	0x3ebc9dc0	0.36839104
144	0x3f11e731	0.56993395
145	0x3f609ec4	0.8774226
146	0x3edcf52d	0.43155804
147	0x3efab0f8	0.4896314
148	0x3f03df48	0.51512575
149	0x3f1f54d2	0.622388
150	0x3fb546c6	1.4162223
151	0x402b5638	2.6771374
152	0x3efc15b6	0.49235314
153	0x3f413be5	0.75482017
154	0x3f3dd71c	0.74156356
155	0x3e64e075	0.22351249
156	0x3f3e32dc	0.74296355
157	0x3f27e59f	0.6558475
158	0x3f17f57e	0.59358966
159	0x3e8fba3f	0.28071782
160	0x3ec48596	0.38383168
161	0x3f361c49	0.7113691
162	0x3f8bfca3	1.0936474
163	0x3f5cf37d	0.86309034
164	0x3f109a30	0.5648527
165	0x3f05cc27	0.52264637
166	0x3edd6131	0.43238214
167	0x3fa0d516	1.2565029
168	0x3fa9c7aa	1.3264058
169	0x3f6b9d1f	0.9203662
170	0x3eaa3e43	0.33250627
171	0x3ec92c65	0.39291683
172	0x3f3e210a	0.74269164
173	0x3f045385	0.5168994
174	0x3f40d4ce	0.75324714
175	0x3f2b9dae	0.67037475
176	0x3fb6ce48	1.4281702
177	0x3eecf131	0.46277764
178	0x3f9bfc34	1.2186341
179	0x3f5b459c	0.8565309
180	0x3fe6479b	1.7990602
181	0x3ebbe610	0.3669896
182	0x3ed0d42e	0.4078688
183	0x3f0e8b3d	0.5568121
184	0x3f10a9de	0.56509197
185	0x3f0b3e98	0.54392385
186	0x3fe5db46	1.7957542
187	0x3ebce7f0	0.36895704
188	0x3fd67574	1.6754594
189	0x3f1e2bac	0.6178539
190	0x3f6a7c78	0.91596174
191	0x3f3ec5e3	0.745207
192	0x3fdbd5b9	1.7174598
193	0x3fae87b7	1.3635167
194	0x3f1a5940	0.60292435
195	0x3f54a413	0.8306286
196	0x3ea10de0	0.31455898
197	0x3fb50eaf	1.4145106
198	0x3f287fe0	0.6582012
199	0x3f1c9d86	0.6117786
200	0x3f25d524	0.6477835
201	0x3ec57fb7	0.38574
202	0x4029b8e8	2.6519108
203	0x3fca0f45	1.578591
204	0x3f725e7b	0.94675416
205	0x40211278	2.5167522
206	0x3ed8cfd8	0.42346072
207	0x4045542a	3.083262
208	0x3ee04829	0.43805054
209	0x3f719495	0.94367343
210	0x3f956be6	1.1673553
211	0x3f0e4172	0.5556861
212	0x3ed88415	0.4228827
213	0x3ee2f878	0.44330192
214	0x3f9fe022	1.2490275
215	0x3e127cbc	0.14305395
216	0x3f76c477	0.9639353
217	0x3f9a5d2a	1.2059681
218	0x3de7da46	0.11320929
219	0x3f8aaa0c	1.0833144
220	0x3f6f5e7a	0.93503535
221	0x3ed81fc3	0.42211732
222	0x3f66e697	0.901956
223	0x3fdceccb	1.7259763
224	0x3e4eaa7d	0.20182224
225	0x3f026b42	0.5094491
226	0x3fd111ab	1.6333517
227	0x3e9805af	0.29691836
228	0x3fcbef00	1.5932312
229	0x3f68bdde	0.90914714
230	0x3f954a97	1.1663388
231	0x3e6e4d0d	0.2327158
232	0x3f5b6965	0.85707694
233	0x3f4b5508	0.7942662
234	0x3f5a46ce	0.8526429
235	0x3f38f3b8	0.72246885
236	0x3f63675f	0.88829607
237	0x3f0e8b91	0.5568171
238	0x3fbd938a	1.481065
239	0x3f92ec25	1.1478316
240	0x3e9da552	0.30790192
241	0x3ebcddf5	0.3688809
242	0x3fdf977f	1.7468108
243	0x3fafe0bd	1.374046
244	0x3f1c67f3	0.61096114
245	0x3f07609b	0.52881783
246	0x3f8e232f	1.1104487
247	0x3e536a77	0.20646082
248	0x3f67e047	0.90576595
249	0x3ea44b70	0.32088804
250	0x3ff824da	1.9386246
251	0x3f002737	0.5005984
252	0x3f3cd634	0.7376435
253	0x3f09c747	0.538197
254	0x3f7b0aee	0.9806355
255	0x400055d2	2.005238

fc2.weight f4 [300, 400]
0	0x3d27bfa5	0.04095425
1	0xbd9c47a1	-0.0763085
2	0x3e11fd64	0.14256817
3	0x3d836cf3	0.06417265
4	0xbd1112d6	-0.035418354
5	0xbd83fe26	-0.06444959
6	0x3c7687dc	0.01504704
7	0x3d7cbd6f	0.061704095
8	0x3db26a33	0.08711662
9	0xbd821136	-0.06350939
10	0x3e4b48e2	0.19852021
11	0xbe5698dc	-0.20956749
12	0xbe41951d	-0.18904538
13	0x3e170e52	0.14751557
14	0xbdc065f0	-0.09394443
15	0x3e0eb861	0.13937522
16	0x3c4a5f05	0.012351756
17	0xbe6cd780	-0.23129082
18	0xbe4b2b45	-0.19840725
19	0x3c3c64fd	0.011498687
20	0xbd7ca149	-0.06167725
21	0xbdcebaf4	-0.10094252
22	0xbc8c9d1d	-0.017164761
23	0xbe327f42	-0.17431358
24	0x3dc57030	0.09640539
25	0x3c94ba1f	0.018155156
26	0xbda98938	-0.082781255
27	0xbcbce4e9	-0.023058372
28	0xbdb67386	-0.08908753
29	0x3ca58864	0.020206638
30	0x3d16504f	0.036697682
31	0x3e1a0ee8	0.15044749
32	0x3da92cc6	0.08260493
33	0x3e2265d7	0.15859161
34	0xbd52ce47	-0.051466253
35	0xbd86f576	-0.06589787
36	0xbde72906	-0.112871215
37	0xbe03b72d	-0.12862845
38	0x3bd2056c	0.0064093377
39	0xbe0f34b7	-0.13984953
40	0x3d547f2a	0.051879086
41	0xbc962b1b	-0.018331101
42	0xbd94c3fe	-0.07263945
43	0xbd3a1524	-0.045430318
44	0xbd851a23	-0.06499126
45	0xbdae6fbe	-0.08517407
46	0x3e1273b6	0.14301953
47	0x3de291f0	0.110629916
48	0xbcf192dc	-0.029488973
49	0x3e1dc61f	0.15407608
50	0x3dfd88ab	0.12379583
51	0x3e6169d0	0.2201302
52	0xba5b3a38	-0.0008362862
53	0xbdf83864	-0.12120131
54	0x3e0c6a54	0.13712436
55	0xbdb03131	-0.086031325
56	0x3e0b885d	0.13626237
57	0x3d08a810	0.033363402
58	0x3db00228	0.08594161
59	0x3ddb2900	0.107011795
60	0xbd6ad314	-0.057330206
61	0x3df2fc35	0.11864511
62	0x3dde2cfa	0.10848422
63	0x3b8d6d40	0.004316002
64	0x3dd0069d	0.101575114
65	0xbe8b8d98	-0.27256465
66	0xbe183744	-0.14864832
67	0x3db63443	0.08896687
68	0xbd9d7853	-0.07688966
69	0x3ca8522d	0.020546997
70	0x3d703b73	0.058650445
71	0x3d9a77db	0.07542392
72	0x3e794a7e	0.24344823
73	0x3d816d27	0.06319647
74	0xbdb4465f	-0.08802485
75	0x3e5f3b20	0.21799898
76	0x3c921672	0.017832968
77	0x3d5cf11c	0.053940877
78	0x3e1d19f3	0.1534193
79	0x3e1e0693	0.15432195
80	0xbdca17b6	-0.09867804
81	0x3e637d46	0.22215757
82	0xbbd26c44	-0.0064215977
83	0xbdb9ac4b	-0.090660654
84	0x3d8a34ca	0.0674835
85	0xbe78c4c1	-0.24293806
86	0x3d887bbf	0.06664228
87	0xbd6886e2	-0.05676926
88	0xbdd46c14	-0.10372177
89	0x3dad021a	0.084476665
90	0x3c886cea	0.016653497
91	0x3d2efefb	0.042723637
92	0x3d8560c3	0.065125965
93	0xbe1d137e	-0.15339467
94	0x3dc831c3	0.09775116
95	0xbe7ade26	-0.24498805
96	0x3e7080b6	0.234866
97	0xbd692813	-0.056922983
98	0x3c869b84	0.016431578
99	0xbe166210	-0.14685845
100	0x3dbe361a	0.09287663
101	0xbd5053f6	-0.05086132
102	0x3cf2963a	0.02961265
103	0x3dbbff92	0.091796055
104	0x3cef3008	0.029197708
105	0x3dbc609a	0.09198113
106	0xbe03cb0c	-0.12870425
107	0x3a342923	0.0006872585
108	0x3e0c037c	0.13673204
109	0xbd3d0fee	-0.04615777
110	0x3dcdc878	0.10048002
111	0xbdfa322e	-0.12216602
112	0x3e0b28c9	0.13589777
113	0xbe8753ee	-0.2643122
114	0xbcbe2afc	-0.023213856
115	0x3cc7e9fa	0.02440356
116	0x3d2c9921	0.042138223
117	0x3d0283e2	0.031864055
118	0xbe263fb9	-0.16235246
119	0xbe3157e6	-0.17318687
120	0xbdb7688e	-0.08955489
121	0xbe402f50	-0.18768048
122	0xbdf867d0	-0.12129176
123	0x3d2748ff	0.0408411
124	0xba79e480	-0.00095326453
125	0xbc8c37f1	-0.017116519
126	0x3d433576	0.047658406
127	0x3e1dea43	0.15421395
128	0x3c9110ac	0.017708145
129	0x3d9e99ff	0.07744216
130	0x3e1f6c8f	0.15568756
131	0xbc941142	-0.018074635
132	0xbe4ae330	-0.19813228
133	0x3e2968bd	0.1654386
134	0xbdd92635	-0.106029905
135	0xbdf96e4f	-0.12179243
136	0xbde5c777	-0.112196855
137	0xbe71db7c	-0.23618883
138	0x3e287b1a	0.1645321
139	0x3decd238	0.115635335
140	0x3d056548	0.032567292
141	0x3d30f674	0.043203786
142	0xbd6580a0	-0.05603087
143	0x3e38441e	0.17994735
144	0xbd10681a	-0.03525553
145	0xbc327284	-0.01089156
146	0xbdb87d56	-0.09008281
147	0xbcd5655c	-0.026049308
148	0x3daa3315	0.083105244
149	0x3e1f654f	0.1556599
150	0xbde5c099	-0.11218376
151	0x3e14c099	0.14526595
152	0xbdb59828	-0.08866912
153	0xbdf49b6e	-0.11943708
154	0xbd99cc63	-0.07509687
155	0x3e406e47	0.18792067
156	0x3c5fcec8	0.01366014
157	0xbc20a998	-0.009806059
158	0xbe2638a0	-0.16232538
159	0x3da53fed	0.080688335
160	0xbbab55bf	-0.0052287276
161	0xbd82ad0c	-0.06380662
162	0x3da860ee	0.08221613
163	0xbe1524fd	-0.14564891
164	0x3d56a99a	0.05240784
165	0x3db04f9c	0.08608934
166	0xbd9c57fc	-0.07633969
167	0xbef1931b	-0.47182545
168	0x3e4802dd	0.19532342
169	0x3dd63dce	0.10461007
170	0x3d8c8115	0.06860558
171	0xbd4f44ef	-0.05060285
172	0xbf064f00	-0.52464294
173	0xbdff9c1f	-0.124809496
174	0xbe8392cb	-0.25697932
175	0x3e8b7938	0.2724092
176	0x3d90e1b1	0.07074297
177	0xbdb865c4	-0.09003785
178	0x3e11759d	0.14205022
179	0x3e834ad7	0.25643036
180	0xbc5988d1	-0.0132772485
181	0xbea61e52	-0.32445008
182	0x3c739744	0.0148676075
183	0x3e7b41a5	0.2453676
184	0xbe008a7c	-0.12552828
185	0xbe41691b	-0.18887751
186	0x3da168bb	0.07881304
187	0xbd27ed8c	-0.040998027
188	0x3cbf6f15	0.023368398
189	0xbe13ad08	-0.14421475
190	0x3cd7ea67	0.026356889
191	0x3dff1847	0.124558024
192	0xbda9e619	-0.08295841
193	0xbd950a28	-0.07277328
194	0xbf2ab589	-0.6668325
195	0xbde5b074	-0.112152964
196	0x3dfcb150	0.12338507
197	0xbe2e2dcf	-0.17009662
198	0xbd542edc	-0.0518025
199	0x3e500bfd	0.20317073
200	0x3d100b07	0.035166766
201	0xbe144744	-0.1448031
202	0xbd9f7c0d	-0.07787333
203	0xbdb5463e	-0.08851288
204	0x3cf0b880	0.029384851
205	0xbbeceffd	-0.0072307573
206	0x3d459e9d	0.04824697
207	0xbdd5b8ca	-0.10435636
208	0x3e1d02fe	0.15333173
209	0xbdc69019	-0.09695453
210	0x3cb89e25	0.022536347
211	0xbea1225a	-0.3147152
212	0x3e06c134	0.13159639
213	0xbe1e70e1	-0.15472747
214	0x3e3b77a8	0.18307364
215	0xbd188963	-0.037240397
216	0xbe343359	-0.17597713
217	0xbd259368	-0.04042378
218	0x3e24f12f	0.16107629
219	0x3dbb3892	0.09141649
220	0x3e1220f2	0.1427038
221	0xbaf78c69	-0.001888645
222	0xbe3f5201	-0.18683626
223	0x3bda7bf2	0.0066676075
224	0xbd5b1529	-0.053486977
225	0x3dfdb693	0.12388339
226	0xbd317865	-0.043327708
227	0xb95c0521	-0.00020982746
228	0x3da542cd	0.08069382
229	0xbdd72ff7	-0.105071954
230	0xbdbea99d	-0.09309695
231	0x3e1667e6	0.14688072
232	0xbe36f129	-0.17865433
233	0xbe502add	-0.20328851
234	0xbcb70a11	-0.022343667
235	0xbe2c6fd3	-0.16839533
236	0xbe6f985a	-0.23397961
237	0xbe353e12	-0.17699459
238	0xbe23b894	-0.1598838
239	0xbead1fae	-0.33813232
240	0x3d343c66	0.044002913
241	0x3e99d6dc	0.30046737
242	0xbe00563b	-0.12532894
243	0x3e25d193	0.16193227
244	0xbdf30903	-0.11866953
245	0xbd7f4d1d	-0.0623294
246	0xbe0acd17	-0.13554798
247	0x3e5018c6	0.2032195
248	0xbd9e188e	-0.07719527
249	0x3db34aa2	0.087544695
250	0xbda2edd4	-0.07955518
251	0xba978e5d	-0.0011562813
252	0xbdbc1458	-0.09183568
253	0x3dad33d1	0.08457149
254	0x3de9e7a5	0.11421136
255	0xbe9096c0	-0.28240013
